assets/models/smc/smc_30m.onnx (onnx, 28515 bytes, 5 tensors)

net.0.weight f4 [32, 5, 3]
000000 97 38 46 be 19 7e 53 be 10 c9 3d be f2 39 58 be
       -0.19357525 -0.20653571 -0.1853373 -0.21115854
000010 df ee 8e bd 0a 08 52 bd 2d 12 0b be 7a 27 f2 3d
       -0.06979155 -0.051277198 -0.13581152 0.11823936
000020 40 cb 05 be 5e 85 11 be da 9b 45 be b1 0c 1b be
       -0.13065815 -0.14211032 -0.19297734 -0.1514156
000030 bc 90 01 be 91 3b 01 be 69 8b 62 be 76 c0 46 3d
       -0.12652868 -0.12620379 -0.22123493 0.04852339
000040 49 9f 4a 3e 57 79 0c 3e d9 bf 28 be e6 19 d1 3d
       0.19787325 0.13718162 -0.16479434 0.10210018
000050 01 f2 73 3d c8 9e b0 3c df 35 5a be aa 1a 81 bd
       0.059556965 0.021560088 -0.21309613 -0.06303914
000060 f4 47 05 3e 0d b3 fd 3d 79 01 f6 3c 28 3e d0 bd
       0.13015729 0.12387667 0.03003 -0.10168105
000070 8a cb 3e 3d a6 0a d9 3d eb cb 73 be 11 d7 61 3e
       0.04658083 0.10597734 -0.23808257 0.22054698
000080 32 f1 cf 3d bb 63 9f bd cc 01 11 be 8f f1 25 3e
       0.10153426 -0.07782694 -0.14160842 0.16205429
000090 f7 24 b2 bd ed ca 4b be 56 a3 7c bd 1c 00 07 be
       -0.08698457 -0.19901629 -0.061679207 -0.13183635
0000a0 c0 33 09 bc 65 f9 c0 3d 77 95 85 bd 18 0b 27 be
       -0.008374155 0.09422568 -0.06522649 -0.16312826
0000b0 b7 f0 e3 3d 66 5e 7b 3e 6d 89 c6 bd 9e 36 b3 3d
       0.11129897 0.24547729 -0.09694181 0.08750652
0000c0 0c a9 90 3d 39 9a 12 be 17 0d dd bd f9 68 38 bd
       0.07063493 -0.14316644 -0.10793512 -0.045021985
0000d0 1a 74 98 bd 66 13 ba 3d 66 5b 80 3e 8a c1 24 3d
       -0.074440196 0.09085731 0.2506973 0.040223636
0000e0 2a 55 7b bc 68 2d 14 bd cf 61 3a bd 7c 61 cf 3c
       -0.015340129 -0.036176115 -0.045503434 0.025315039
0000f0 0d bc 44 3d 7c 41 73 3e 01 aa 22 3d 41 20 0f be
       0.0480309 0.23755449 0.03971291 -0.13977148
000100 28 d4 05 be 29 79 d7 bd 7b f4 83 be b3 af 8c bd
       -0.13069212 -0.10521156 -0.2577246 -0.068694495
000110 16 19 56 be b3 26 1e 3d 0b ed a9 bd 72 48 e2 3d
       -0.20908007 0.038611125 -0.082971655 0.11048974
000120 e3 72 0b 3e 85 60 31 be 9b 34 82 3e bd dd 14 3e
       0.13618045 -0.17321976 0.2543076 0.14537711
000130 c8 96 2d bd b5 2f 0f 3e fb 42 d4 bd f9 7e 72 be
       -0.042380124 0.13983043 -0.10364338 -0.23681249
000140 c2 0f 90 3c 90 a4 27 3e 49 dc d6 bd a1 fa a7 3d
       0.017585639 0.1637137 -0.10491235 0.082021005
000150 7e 98 3e 3e 5f e0 73 bd b5 23 04 be de cc 20 3e
       0.18612859 -0.05954015 -0.12904246 0.1570315
000160 6f 6b 31 bd d7 72 76 3e a3 df ea bc 0d 97 1d be
       -0.043315347 0.24067245 -0.028671091 -0.15389653
000170 4c 45 77 3e 72 2f 4e 3d 9d eb 76 bd e7 b5 19 3e
       0.24147528 0.050338216 -0.060283292 0.15010796
000180 b7 5e 1f be 89 7f 32 3e b5 ea 6f be bb ef 38 be
       -0.15563475 0.17431463 -0.23429377 -0.180602
000190 c8 c7 17 bc 43 e2 3f 3e 6d 8e 22 3e ae 60 ff 3d
       -0.00926394 0.18738656 0.15874644 0.12469612
0001a0 74 4d de 3d 3f 6b bc bd 29 24 d7 3d aa ac d0 3d
       0.10854617 -0.09200143 0.10504944 0.10189183
0001b0 a7 cc 72 3e 8d b4 7d be 05 f8 9e 3b cd 21 17 3c
       0.23710881 -0.24775906 0.0048513436 0.009224367
0001c0 86 35 1c 3e 6e 54 bd bd df bf 1e be 0d 81 07 3c
       0.15254793 -0.09244619 -0.1550288 0.008270514
0001d0 8b 36 cc bd c4 b0 6a 3e f7 17 f2 bd cf 4a 19 bd
       -0.09971341 0.22918993 -0.11820977 -0.03742486
0001e0 32 bc 1f 3e 3f 4e ca bd b7 64 80 3e 27 be 62 3e
       0.15599135 -0.098782055 0.2507684 0.2214285
0001f0 31 4f 46 3e a1 92 4a 3c 09 83 60 3e 65 d9 2e bd
       0.19366147 0.012364061 0.21924986 -0.042687792
000200 18 2c 00 be 4a 50 ae bd e3 dc 11 be 55 a5 f8 3d
       -0.1251682 -0.08511408 -0.14244418 0.121409096
000210 5c b1 18 be a4 ab 93 bc 7c c3 0c 3e 93 e0 75 bd
       -0.14911407 -0.01802618 0.13746446 -0.060028624
000220 c8 cb bd bd 01 65 17 3e 32 00 35 be 77 d6 3a be
       -0.09267384 0.14784624 -0.17675856 -0.18245874
000230 3e 94 3e be e7 4b 5a 3e f8 d4 64 bd 37 7d ec bd
       -0.18611237 0.21318017 -0.055867165 -0.1154732
000240 f1 40 34 3e 1e b7 08 3e a2 95 6b 3e be 15 1a bd
       0.17602898 0.13351104 0.23006299 -0.03761839
000250 81 5e c7 bc 7a 10 12 be f4 34 2a be 90 c7 32 be
       -0.024337055 -0.14264098 -0.16621763 -0.1745894
000260 15 51 20 be 46 b7 de 3d 3a fa 09 3d bb 52 08 3b
       -0.1565593 0.108748004 0.0336859 0.0020801264
000270 b2 5d 80 be df ae 4b be 99 9c 58 be 02 94 15 be
       -0.25071484 -0.19890927 -0.21153487 -0.14607242
000280 23 a3 8a 3d 0f 3a aa bd f9 70 5e be d6 f5 20 3e
       0.06769397 -0.08311855 -0.21722783 0.15718779
000290 ba 35 ba 3d 2a ac 55 3e 76 bb 5d bd f7 93 17 3e
       0.09092279 0.20866457 -0.054133855 0.14802538
0002a0 9f ca 84 3e f8 50 79 bc 85 58 18 be ae 79 76 be
       0.25935838 -0.015217058 -0.14877518 -0.24069855
0002b0 63 a5 83 3e 13 41 82 be e7 ee c8 bd 45 87 6c 3d
       0.25712118 -0.25440273 -0.09811192 0.05774619
0002c0 0c 51 f8 bc 38 c2 63 3e f6 1c 83 be b0 f6 60 be
       -0.030312084 0.22242057 -0.25608033 -0.21969104
0002d0 2f e5 da 3d 37 2b 1e be 53 dd 31 3e 2c 3e 0f be
       0.106882446 -0.15446173 0.17369585 -0.1398856
0002e0 66 f8 30 be 25 12 e9 bd b2 fc 5f be 3d a4 5b be
       -0.17282256 -0.11380414 -0.2187374 -0.2144937
0002f0 f0 9c 04 3d e3 46 85 3e 12 70 41 3e a8 cd 8d bd
       0.03237623 0.26030645 0.18890408 -0.069239914
000300 9b 1a 8e 3d 16 de 49 3e cf 89 76 3e 8d 2b 0c 3e
       0.06938668 0.19713625 0.24076007 0.13688488
000310 7e 5c 60 bd c0 1f 7b bd e7 eb a9 bd 8f 83 75 be
       -0.054775707 -0.061309576 -0.08296948 -0.23975967
000320 82 a5 41 be eb 54 45 3e 50 7f d0 bd 9a f4 c3 3d
       -0.18910792 0.19270675 -0.10180533 0.095681384
000330 a3 b7 a0 3d 21 47 1b be 8d 94 ff bd 5c f2 54 3e
       0.07847526 -0.15163852 -0.12479506 0.20795578
000340 43 f7 1e 3d d0 36 49 3e a2 42 f1 3d a7 a6 89 3d
       0.038810026 0.19649816 0.11780287 0.067212395
000350 52 68 27 3d de 19 e9 3d b4 b9 5f be 09 92 e4 bc
       0.040870972 0.11381887 -0.21848184 -0.027901666
000360 cc 77 7b bc ac c9 4b be 26 05 e2 3c d6 f2 10 be
       -0.015348386 -0.1990115 0.027590346 -0.14155135
000370 e7 0d 70 3e 83 bb a1 3d b2 6c ef 3d cb 6d 28 be
       0.23442803 0.07897093 0.11690654 -0.16448133
000380 5e 24 8d bd 09 c2 82 3d a0 2c 81 3e a3 87 e8 bc
       -0.06891702 0.063846655 0.2522936 -0.02838499
000390 e6 fc 2b be c2 9f 61 3e 05 f9 64 be b2 a3 80 bd
       -0.16795692 0.22033599 -0.22360618 -0.062812224
0003a0 36 76 a8 3c cd 28 36 3d 2d 69 9d 3d 2a 08 01 3d
       0.02056418 0.044472504 0.07686076 0.031501926
0003b0 91 f3 07 bd 50 62 4c be 1f a3 55 be 6d 71 78 3e
       -0.033191267 -0.19959378 -0.20863007 0.24262019
0003c0 a7 67 5d 3e ca 00 62 be 13 13 46 be aa ef 84 3c
       0.21621571 -0.22070614 -0.19343214 0.016227562
0003d0 67 81 a8 3c 5d 17 dc 3d 2c c3 44 3e 7c 6f 5e be
       0.020569516 0.10746644 0.19215077 -0.21722215
0003e0 30 b3 64 be fc ee 2f 3e 79 da 8c bc d0 05 1a be
       -0.2233398 0.17181009 -0.01719402 -0.1504128
0003f0 b3 81 40 bd b1 ab 14 be 8d 36 fe 3d da 26 46 3e
       -0.04699869 -0.1451862 0.124127485 0.19350758

net.0.bias f4 [32]
000000 4e bb 97 bd 11 9f 84 3e 2e ca 81 3e 02 c4 90 bd
       -0.074087724 0.25902608 0.25349563 -0.070686355
000010 30 2c 60 3d 40 78 0a be 1c a3 13 be 48 bf 24 be
       0.05472964 -0.13522434 -0.1441769 -0.16088593
000020 cf 06 20 3e d9 91 f8 bd db 9d cc 3d 32 80 6a be
       0.15627597 -0.12137193 0.09991046 -0.22900465
000030 bc 4a 55 3e df e7 31 3e e4 21 ee 3d 3e 4f 00 bb
       0.2082929 0.17373608 0.11627558 -0.0019578482
000040 b1 30 0c 3d de fa 8f bc 78 12 68 3d a5 dc 22 3e
       0.034226123 -0.017575677 0.05665824 0.15904482
000050 18 da 06 3e 76 d9 7d be bb 9e c6 bd 99 51 21 3d
       0.13169134 -0.24789986 -0.09698244 0.03938446
000060 76 e9 5b be 0e 05 85 be dc 03 5a bc bc 5d d8 bd
       -0.21475777 -0.2598042 -0.013306584 -0.105647534
000070 ba f5 d9 bd 16 9f 8a bc db 59 72 be 3a e8 41 be
       -0.10642572 -0.016921561 -0.2366709 -0.18936244

net.2.weight f4 [64, 32, 3]
000000 e5 a6 b7 3d 48 cb 1c bb 6f c8 92 3d 2e b2 f4 3a
       0.089673795 -0.0023924876 0.07167136 0.0018668824
000010 3c 25 a6 3b f0 f4 db bc 74 41 52 bd 68 77 ec bc
       0.0050703567 -0.026850194 -0.051331952 -0.028865531
000020 25 6e 46 bd 21 c2 36 3d d9 e3 26 bd 45 24 3c 3d
       -0.048444886 0.04461873 -0.040744636 0.045933027
000030 30 5d 34 bd 0e 8c 82 bd 0f bb 67 3d a4 c0 8a 3d
       -0.044034183 -0.063743696 0.056574877 0.067750245
000040 5c a6 0c bd 99 29 bc bd d8 94 8b bc 54 49 d7 bc
       -0.03433834 -0.091876216 -0.017038748 -0.026280083
000050 96 93 e1 bc ce 08 40 3d b0 d3 8b bd f9 8c ab 3b
       -0.027536195 0.046883397 -0.068274856 0.005235311
000060 eb 07 b8 bd c5 ec 9d bd 26 59 91 3d 70 f6 b4 3d
       -0.08985885 -0.07711176 0.07097082 0.08836067
000070 c5 ac d3 3c f1 fe 9a bd a3 74 12 bb 1a dd 31 bd
       0.025839219 -0.075681575 -0.0022347353 -0.04342375
000080 80 39 7b bd 84 0d 07 3d 79 d3 20 3d f4 fc ac bd
       -0.061334133 0.032971874 0.039264176 -0.084466845
000090 b1 32 65 3d 60 0e c1 3d 02 c8 11 3c 31 ba af 3d
       0.055956546 0.0942657 0.008897783 0.08580435
0000a0 f0 22 a7 bd 4a 33 96 bd 32 4f d3 3c 4c 35 7f bc
       -0.08160961 -0.07334001 0.0257946 -0.015576672
0000b0 36 cb 73 3d 65 ad 8d bd d3 d4 93 bd 2d c0 ae bd
       0.05951997 -0.06917838 -0.072183274 -0.08532748
0000c0 95 ea d1 3d 8b aa 8e bc 01 51 a2 bd d2 ca 85 bd
       0.10249821 -0.017415306 -0.079256065 -0.065328255
0000d0 ef 77 ec 3a bd f8 b8 3c df 4c 8d bd 3f 05 88 bd
       0.0018041114 0.022579545 -0.068994276 -0.066416256
0000e0 78 17 7b 3d f5 31 44 3d 24 5c 5d bc ca 02 bb 3d
       0.06130168 0.047899205 -0.013510738 0.09131391
0000f0 78 29 3e bd 89 b8 a4 bd e7 71 1f bd 7c b1 f8 3b
       -0.046426266 -0.0804301 -0.038926985 0.007589517
000100 64 1f 90 3d 86 ff d9 3c a8 b7 f0 3c 97 c5 82 bc
       0.07037237 0.0266111 0.02938445 -0.015963359
000110 54 01 8f bb 05 dc d6 3d 9d c0 8e 3d 70 20 22 3d
       -0.004364172 0.10491184 0.06970332 0.039581716
000120 0b 37 58 3d 10 41 33 3d b7 fc 4c bb 6a 22 af bc
       0.052786868 0.04376322 -0.003127856 -0.021378715
000130 85 3a 45 bd 75 35 c1 3d dd e7 94 3d 49 8c b4 bd
       -0.04815151 0.09434024 0.07270787 -0.0881582
000140 c4 65 28 bd cd 7c bc 3d 8a 33 5f 3b 58 17 7c 3d
       -0.041112676 0.09203491 0.003405782 0.0615457
000150 a6 9a 79 3a eb d4 73 3d 82 1c 84 bd 17 87 91 3d
       0.00095216406 0.059529226 -0.0645075 0.071058445
000160 60 b5 f3 bc f1 41 ad 3d db fc 93 3d a6 ce 6d 3d
       -0.029749572 0.08459843 0.07225963 0.058058403
000170 55 b3 c2 3d 00 70 f6 39 12 35 a4 bd 11 e5 4f bd
       0.09506861 0.00047004223 -0.08017935 -0.050755564
000180 4d 55 80 bd 40 7c d6 bd 52 7a c0 3c ac 37 bf 3d
       -0.0626627 -0.104729176 0.023495827 0.093367904
000190 96 74 2e 3b 0b f5 78 bd 4e cd aa 3c 2c 6a 97 3c
       0.0026619784 -0.060780566 0.02084985 0.018483244
0001a0 9c 15 8d bd 60 67 87 bd 8b 5b 86 bd 6a 34 83 3d
       -0.06888887 -0.06611514 -0.06560429 0.064064816
0001b0 70 ae c0 bd 2a 11 de 3c 41 2d b8 bd 60 49 87 3d
       -0.09408271 0.027107794 -0.089930065 0.06605792
0001c0 72 4d 8f bd 84 d5 43 3c 4d 91 65 3d a5 2b 9f 3d
       -0.069971934 0.011952762 0.056046773 0.077719964
0001d0 15 dc 9a bd af ba 17 3d cb 52 6b 3d f4 bd 8f bd
       -0.075615086 0.03704327 0.057452004 -0.070186526
0001e0 cc 07 41 ba ff 6a 66 3d 5b 2e e5 3c 07 a6 e7 3c
       -0.00073635275 0.056254383 0.027976206 0.02827741
0001f0 7e 9d b4 3d 34 c7 96 3d f3 df 55 bd b5 fc 90 bb
       0.08819102 0.07362214 -0.052215528 -0.0044246563
000200 f7 f2 52 3d 75 07 93 bd 4c de 83 3d 44 b1 d2 3c
       0.05150124 -0.07179157 0.06438884 0.025719292
000210 ca 79 c7 bc ca 8e 50 bd 22 d6 4f bb 3b 09 1f bd
       -0.024350066 -0.050917424 -0.0031713326 -0.038827162
000220 10 94 77 bd 19 33 92 3c 2c cf 6d bd ca 98 d6 bd
       -0.060443938 0.01784663 -0.058058903 -0.10478361
000230 8c 04 f8 bc 25 47 c3 3c 4c d7 1c bb 14 d5 30 3d
       -0.030275606 0.023837635 -0.0023932038 0.043171957
000240 48 6a ad 3d 3f 11 78 bd d1 2f ec bc 4b df 56 bd
       0.08467537 -0.060563322 -0.028831394 -0.052459043
000250 c4 00 18 bd 90 d5 e5 bc ac fa 24 3d 10 c8 b2 bd
       -0.037110105 -0.028055936 0.04027812 -0.08729565
000260 41 92 84 3c 74 de 32 3d 6b a0 99 3d 84 72 6e b9
       0.01618302 0.04366918 0.075013004 -0.00022740109
000270 94 80 2e bd 09 07 7b bd 35 a5 36 3d a7 bb 58 bd
       -0.04260309 -0.061286006 0.044591147 -0.052913334
000280 f8 3f 49 3d b6 08 5e 3d 00 3f a4 bd 94 91 91 3d
       0.04913327 0.054207526 -0.08019829 0.07107845
000290 c1 21 49 bd 3b a9 f3 bc e3 90 7b 3d fa 01 75 3d
       -0.049104456 -0.029743781 0.06141747 0.059816338
0002a0 d1 4f 81 3d 75 c9 b5 3d 2b 1a 8c b8 89 ef 31 bd
       0.06314052 0.088763155 -6.6805944e-05 -0.04344133
0002b0 87 f7 c3 bd 8d 5a b4 bd 4b ce 47 bd b4 7e 80 3d
       -0.095686965 -0.08806334 -0.04878072 0.06274167
0002c0 3d 9c 7a 3d 55 28 9c bd 2d 80 a8 3d 37 f1 a5 3d
       0.061184157 -0.0762488 0.082275726 0.08102649
0002d0 4e eb 6f bd dc 5f 88 3d 80 70 bb bd aa ba 91 bb
       -0.058574013 0.06658909 -0.09152317 -0.004447301
0002e0 ee 09 33 bd 51 13 0d 3d 67 b4 dc 3c 6d 43 c1 3d
       -0.04371064 0.03444225 0.026941491 0.094366886
0002f0 05 dd 8f bc 76 ba c3 bd 13 0b c9 bb 0e 25 05 3d
       -0.017561445 -0.09557049 -0.0061353534 0.03250604
000300 36 16 ba 3c 16 59 9e bd 85 58 26 bb ee 37 8a bd
       0.02271567 -0.077318355 -0.0025382352 -0.06748949
000310 fe 7e 0f 3d 91 01 95 bd b5 6c e7 bc 35 1a 12 3d
       0.03503322 -0.072756894 -0.028250078 0.035669524
000320 89 2c ba bd 87 23 fd 3a ea d1 b7 bd e9 39 89 bd
       -0.09090526 0.0019312956 -0.08975585 -0.067004986
000330 44 99 61 bd b2 62 f1 bc a6 39 53 3d 31 f4 19 bd
       -0.055077806 -0.029466007 0.05156865 -0.037586395
000340 fa 57 9f bd 5c b0 83 bd 85 47 71 3c a4 0e 5f bd
       -0.07780452 -0.06430122 0.014726524 -0.05445732
000350 5f 9e 80 3c bc c3 2f 3d af 01 88 3d 7b 5f 09 bd
       0.015700517 0.042911276 0.06640946 -0.033538323
000360 1d c1 43 bd e0 e3 b6 bd db d2 59 3d ff f8 50 bd
       -0.04779159 -0.089301825 0.053179603 -0.05101871
000370 60 67 db 3d 6f 3c a5 3d 94 15 4a b9 c6 9d d6 bd
       0.107130766 0.080681674 -0.0001927226 -0.10479312
000380 7c c3 06 bd 0a 42 05 bd d9 44 21 bd 4a 32 96 3d
       -0.032901272 -0.032533683 -0.0393723 0.073338106
000390 2c 92 4d 3d 75 8a e1 3c 32 13 93 bd 33 97 57 3d
       0.05018823 0.027531842 -0.071813956 0.05263443
0003a0 cc 78 b3 3c e0 80 b1 3d f4 60 a2 bd 88 49 54 3d
       0.021908186 0.08667159 -0.079286486 0.051827937
0003b0 cc 7e ba 3d c1 0d 75 3d 7e d0 c0 bd 22 41 bf bd
       0.09106216 0.05982757 -0.09414767 -0.09338595
0003c0 f4 f2 4f bc 2d 97 fc bc 50 3f ba 3d 4c 4f 8d bd
       -0.012692202 -0.030833805 0.09094107 -0.0689989
0003d0 af 6f 93 bd 7b 27 10 3d 35 25 bf 3d f3 4a 89 3d
       -0.07199036 0.0351939 0.093332686 0.067037486
0003e0 38 0a ca bd 7a 42 24 3d ea ba bc 3d d4 e9 a0 bd
       -0.0986523 0.04010246 0.092153385 -0.07857099
0003f0 56 16 98 bd 2b 80 8c bc 83 bc 93 bc 4e 94 4c bd
       -0.07426135 -0.017150959 -0.018034225 -0.049946122

net.2.bias f4 [64]
000000 d3 69 42 3d 52 6e 20 bd 0f e1 a6 bd 8c ec d5 3c
       0.047464203 -0.03916771 -0.08148395 0.02611377
000010 fd 89 9e 3d f0 de 92 bd 53 05 4b 3d 41 e7 05 3d
       0.07741163 -0.07171428 0.049565624 0.032691244
000020 53 d2 f3 bc 02 cb 8b 3d dd 02 89 bd 6c 90 0e 3d
       -0.029763376 0.0682583 -0.06689999 0.0348057
000030 73 63 db 3d aa 83 f3 bc 2b 7e a1 3c 91 08 bb 3d
       0.10712328 -0.029725868 0.019713482 0.09132493
000040 80 5f bd bd 1d 20 13 bd 57 cf d5 bd 5c 40 a0 bd
       -0.09246731 -0.035919297 -0.104399376 -0.078247756
000050 3c 43 d2 3d cd 5e b4 bd 70 d9 14 bd f2 b7 9b 3d
       0.1026673 -0.08807144 -0.036340177 0.07603444
000060 cb 0c 08 bc 0a 7b 11 3d 1f 43 d7 bd e1 81 d3 3c
       -0.008303831 0.03551773 -0.10510849 0.025818767
000070 c2 c6 8e bd f1 13 10 bd f2 fc a3 bd 42 c9 22 3d
       -0.06971504 -0.035175268 -0.0800723 0.039742716
000080 ae a4 d7 3c f2 89 86 3d 8f 44 44 bd 6f 2d 8f bd
       0.026323643 0.0656928 -0.047916945 -0.06991088
000090 f5 6a 5e 3d a7 cd a9 3d b3 f6 22 bd c3 43 7e 3d
       0.05430122 0.08291178 -0.039786052 0.06207634
0000a0 78 84 11 3c aa 02 3f bd 34 f5 88 3d 31 37 79 3d
       0.008881681 -0.0466334 0.06687394 0.06084365
0000b0 5b 88 14 3d ce 2d a3 bd d0 44 0a 3d e4 d8 56 3d
       0.03626285 -0.07967721 0.03375703 0.052452937
0000c0 1f 1d 22 3d 5a a6 2c 3d 93 bb cb 3c 4e bb 8c bd
       0.039578553 0.042150833 0.024869716 -0.06871663
0000d0 86 0e 59 3d de 5f e0 3c d4 fa 91 3d 6e 87 b1 3c
       0.052992366 0.027389463 0.0712792 0.021671023
0000e0 56 3b 73 3d 6f e7 78 3b 6a ad a6 3d 1c 6d ae bd
       0.05938276 0.0037979742 0.08138545 -0.08516905
0000f0 4a 3f f3 bc b9 2e bf 3d ae aa 86 3d 5a c6 75 bc
       -0.029693265 0.093350835 0.06575523 -0.015000904

fc.weight f4 [1, 64]
000000 ce 1b 06 3d de 1c ae bd 1d a9 d3 3d ee c7 87 3d
       0.03274136 -0.085016 0.1033499 0.066299304
000010 9e 13 82 3d 63 fa f1 3d 33 83 07 3d f0 14 05 3e
       0.06351398 0.118153356 0.033084106 0.12996268
000020 4f fc a7 3d f5 83 5c 3d 29 60 57 3d 3a 93 bc 3d
       0.08202421 0.05383678 0.05258194 0.09207769
000030 c5 e3 ae 3d c2 fd 65 bd 09 36 4f 3a 00 0b f3 3c
       0.08539537 -0.056150205 0.0007904475 0.029668331
000040 ef 79 b6 3d 3a 90 88 bd ee c4 f0 bd e6 c2 f8 3d
       0.08909976 -0.06668134 -0.11756311 0.12146549
000050 39 06 02 3d 2e e7 48 bd 32 fd 59 bd b8 15 a0 bd
       0.031744216 -0.049048595 -0.05321998 -0.078166425
000060 92 8a ed 3a 34 70 7b 3d d7 58 86 bd d4 46 32 3d
       0.0018122962 0.061386302 -0.065599136 0.04352458
000070 3d 9d be bd c2 bb bc bd 45 22 a8 3d 31 a3 ca bd
       -0.093073346 -0.092154995 0.082096614 -0.098944075
000080 7d aa 4d bd ac 28 eb bc 75 6b f1 3d c0 5b f3 bd
       -0.05021142 -0.028705917 0.11788074 -0.11882734
000090 f4 b3 46 3d 88 14 8b bd ed c4 01 3e 93 54 3f bc
       0.04851146 -0.067910254 0.12672777 -0.011677879
0000a0 ea ee d9 bc 7d 06 ce 3c 4f 72 84 bc 41 14 9e 3c
       -0.02660318 0.025149578 -0.016167788 0.019296767
0000b0 0e e1 d1 3d a0 14 c1 bc 41 38 b0 3d ee fc e7 bb
       0.10248004 -0.023569405 0.086044796 -0.007079712
0000c0 34 1d e1 bc dd 35 f0 3d 61 9d ba bd 08 53 5d bd
       -0.027479745 0.117290236 -0.09112049 -0.054034263
0000d0 ac 07 26 3d ca d8 be bd 10 5e 7d 3d 3a e9 82 3d
       0.04053466 -0.09318693 0.061857283 0.06392141
0000e0 7f cd af bc 2d 47 4f 3d e5 01 4e bd 33 8d e2 3c
       -0.021460293 0.050604988 -0.050294776 0.02765522
0000f0 93 96 05 3d fc 7b 21 bd f6 4a 93 bd e4 45 f6 3d
       0.032614302 -0.03942488 -0.07192032 0.12025049
