assets/models/smc/smc_15m.pt (torch, 29909 bytes, 5 tensors)

net.0.weight f4 [32, 5, 3]
00000000: c6d0 583c b834 24be 5479 9e3d af0d 9c3d
00000010: 2546 12be 9664 32bd 5cce 1fbe bcb3 7e3d
00000020: 8b47 98bd 8dd1 343e 61be 363e 92ff af3c
00000030: 258b ecbd b0e0 20be 1dee 0bbd 0418 89bd
00000040: ca97 f43d 85fa 5bbe d275 7e3e e87f 49be
00000050: 165e 503e 844b 21bd b79e 0d3e c07c d93d
00000060: 9bb9 863c f959 5c3d 7d9d 4e3e 4098 793d
00000070: 82a5 063e d77f 52be e76a 373e f95f ac3d
00000080: f999 783d 5a85 fd3c 3919 f83d 68f6 6d3e
00000090: d873 7ebd b014 18be e39a 8ebd 25f2 25be
000000a0: b3c4 f43d 627c 07be 491a 07be 49fa 693e
000000b0: 5f7a 773e 8847 113d fa90 1fbd 90b0 e2bc
000000c0: c12e 033e fcf3 70be 6326 52be 6919 593e
000000d0: 6658 853e 414a 1fbc 81ff 4abe e440 503c
000000e0: d834 eabd 8a5d c6bb 79df f73d 69f0 de3d
000000f0: 020f ffbc db8e da3c a7bf 873d 6966 53be
00000100: 2c55 bbbd a49b ba3b 0b50 18be c75f e9bd
00000110: 4ca8 ae3d c23d 143e 49e4 023b 2f37 d6bd
00000120: d906 113e bde9 0ebe fbfc 76bd 8702 7c3e
00000130: e5ec 4c3d 0d46 ad3c c6fe b63d f1a3 78bd
00000140: b4af 643e e5d3 54be 7da9 8abd 5354 2abd
00000150: 08bb d4bd f9b5 79bd 6f81 263e 7e80 0c3e
00000160: 6ead 223c f075 613e cc49 36be 7a41 19be
00000170: d7cc f73d 0bfb 1abc 3584 6cbe 2170 32be
00000180: 2790 1cbe a592 503e e230 f83d 8ad4 503e
00000190: 1871 40be 2755 7dbe c3c0 32be bf1b ca3c
000001a0: b95c 59bd 074c 21be f1ce 453e fbcf 9fbd
000001b0: 4593 13be 9e01 ff3d b1aa 83bd a8dd 2d3e
000001c0: 6da2 883d 2952 3d3c 4058 733d 1156 41be
000001d0: fc21 08be a175 edbd 2600 10be ea89 523d
000001e0: ecac 693d a758 d0bd e5f6 313e 4d8d 0dbe
000001f0: a05b 6c3d 33e7 8bbd 79af 5fbe 7381 26be
00000200: 5f3f e33d 8d72 dc3d b8db 1dbe 1bd5 99bd
00000210: 1c48 7dbe df55 083e 62a1 5e3e 92a2 aa3d
00000220: fda2 24be 9a03 0b3e 0fcd 593e 89a3 5dbd
00000230: c852 31bd 3802 b63d 417e 093d 562d aebd
00000240: c285 76be 6dd7 39be 3c2b 613c 5d44 80bc
00000250: 5cba 573e eaa8 f23b 94e1 7abd 7ffd 7cbe
00000260: b1bd 6dbe 9762 e63d 10da 703e 8bca ae3a
00000270: baf9 66be 2465 c63d 75a8 5c3e b2a3 29be
00000280: d68c 80bd a986 dc3c f520 11be cb84 6fbe
00000290: 42f3 f23d 42a3 56be 0cc5 7ebd f4a5 09be
000002a0: 4183 493e b93d 583d 330a fb3d 03a6 30be
000002b0: d646 613e b4ab cf3c 9209 10be 39ea 68bc
000002c0: 39a5 38be 89cf 31bc 7bf6 143e 71c2 e9bd
000002d0: f108 653e 4682 ac3d 47d8 22bd 7063 b03d
000002e0: 4b8f 2cbd ef66 5fbd d8f7 27be 5292 1f3e
000002f0: a23f 243e fe28 c03d 95ea 213e 1edb 863e
00000300: 7385 733e 1b92 82be 7979 593d ccae b7bc
00000310: 247d b23d 196a 4cbd 54aa 913d 4f29 74be
00000320: 4906 f23d 6744 7e3e 5cc0 3cbd 7e8e 51be
00000330: 6e1a 5cbe bc28 4bbd 6b5b 50bb b694 d83c
00000340: dbb7 ea3c 79c7 423e 0145 2bbd 0a2d a13d
00000350: 6253 07be a9a1 843e 86a8 d53d d754 fabc
00000360: bfce 323e 10f6 c43d dbc5 483d ade5 91bd
00000370: e9e6 193d 66f2 be3c 0e69 20be 03b4 0abb
00000380: 00d4 503d 6d51 21be daf9 293d a61c b9bd
00000390: cebb 60be d32a 23be 5cab 56be a306 623d
000003a0: 6000 1d3e 60a0 6b3e 1c84 7e3e d3af c63d
000003b0: 0515 f93d f009 4cbd 3ea3 543e cea0 d5bd
000003c0: 0999 99bd 8ee0 b9bd e02c 36be 97ba 50be
000003d0: e46d 6bbd 40bc 503e 8da5 08be c7f4 74be
000003e0: f7b1 82bd a3a3 6a3e 1b56 6b3d 0943 adbc
000003f0: 0495 8dbd 2573 693e 75b4 7abe 8dd1 103e
0.013233369 -0.16035736 0.07737985 0.076197974 -0.1428457 -0.043552957 -0.15606064 0.062183127
-0.07435521 0.17658062 0.17846061 0.02148417 -0.11549977 -0.15710711 -0.03416263 -0.06694034
0.11943014 -0.21482284 0.24849632 -0.19677699 0.20348391 -0.039378658 0.13830076 0.10619497
0.016445925 0.053796742 0.20177265 0.060936213 0.13149074 -0.2055658 0.17911874 0.08416743
0.060693715 0.030947376 0.12114186 0.23238528 -0.062122196 -0.14851642 -0.06963136 -0.16205652
0.1195158 -0.13231042 -0.1319362 0.22849382 0.24167775 0.03546861 -0.03895662 -0.027672082
0.12810804 -0.23530573 -0.20522456 0.212011 0.26044005 -0.009722293 -0.1982403 0.012710784
-0.114358604 -0.006053631 0.12103171 0.10885698 -0.031135086 0.026679447 0.06628352 -0.20644535
-0.091471046 0.0056948233 -0.14874284 -0.11395221 0.08528194 0.14476684 0.0019972494 -0.10459744
0.14162768 -0.13956352 -0.060299855 0.24610339 0.050030608 0.021151567 0.08935313 -0.06070322
0.2233265 -0.20783956 -0.067706086 -0.041584324 -0.10387236 -0.06096456 0.16260312 0.13720891
0.009929044 0.22017646 -0.17801589 -0.14966384 0.12099617 -0.009459267 -0.23097308 -0.17425586
-0.15289365 0.2036844 0.12118699 0.20393577 -0.18793142 -0.24739514 -0.17456345 0.024671433
-0.053066943 -0.15751658 0.19317223 -0.07803341 -0.14411648 0.1245148 -0.06429041 0.16979086
0.06671605 0.011555233 0.059410334 -0.18880488 -0.13294214 -0.115947016 -0.14062557 0.051401056
0.057049677 -0.10173159 0.17379339 -0.13823433 0.057704568 -0.06831207 -0.21844281 -0.16260318
0.110960715 0.10764036 -0.15415847 -0.0751135 -0.24734539 0.13314007 0.2174125 0.08331789
-0.160778 0.13575593 0.2126963 -0.054111037 -0.043291837 0.08887142 0.03356767 -0.08504741
-0.24074462 -0.18148585 0.013743218 -0.015657598 0.21067184 0.00740539 -0.061250284 -0.24706076
-0.23216893 0.11249273 0.23520684 0.0013335509 -0.225562 0.0968726 0.21548636 -0.16566351
-0.06276862 0.02691968 -0.14172728 -0.233905 0.11862804 -0.20960715 -0.062199637 -0.13442212
0.19678976 0.05279324 0.12257805 -0.17250828 0.21999678 0.02535043 -0.14066151 -0.014215999
-0.18031777 -0.010852703 0.1454715 -0.1141404 0.22366692 0.08423285 -0.03975704 0.08612716
-0.042128842 -0.054541524 -0.16403139 0.1558316 0.16039899 0.09382819 0.15812142 0.26339048
0.23781376 -0.25502095 0.05309436 -0.022422217 0.08715275 -0.04990587 0.07112566 -0.23843883
0.11817605 0.24830781 -0.046081886 -0.20464513 -0.21494457 -0.049599394 -0.003179277 0.026438098
0.028652122 0.19021405 -0.041813854 0.07869919 -0.13215402 0.25904587 0.10432534 -0.030558033
0.1746168 0.09617245 0.049016815 -0.07123885 0.03757373 0.023308944 -0.15665075 -0.0021164424
0.05098343 -0.15753718 0.041498043 -0.090386674 -0.21946642 -0.15934305 -0.20963806 0.05518211
0.15332174 0.23010397 0.24855083 0.097015046 0.12162212 -0.049814165 0.20765397 -0.10431062
-0.07499892 -0.090760335 -0.17790556 -0.20383678 -0.057477847 0.20384312 -0.13344403 -0.239215
-0.063816 0.22913985 0.057455163 -0.021150129 -0.06913188 0.2279783 -0.24482901 0.14142437

net.0.bias f4 [32]
00000000: 554c 283e 7a46 a83c 3988 393e 8d71 81be
00000010: b51c 14bd 1ea1 05be 38e9 463e cc3f dc3d
00000020: ff82 25bd 2361 78be be24 13bd aa34 553e
00000030: 551b 43bc 6d45 40bc 7fad 6ebe db67 563e
00000040: 3265 603e ee78 4ebe ddbb 35be f444 8a3c
00000050: f94d 1cbe c1e4 5cbe 503a b13d 339b 7dbd
00000060: 6e20 c13d 8884 db3d eef1 6d3e 0cdf 213e
00000070: 13d8 72be 03ce 4fbe 6768 543e 9990 5ebe
0.16435368 0.020541418 0.18118371 -0.25281945 -0.03616019 -0.13049743 0.19424903 0.10754356
-0.04040813 -0.24255805 -0.035923712 0.20820871 -0.011908372 -0.011735302 -0.23308371 0.20938055
0.21913603 -0.20163319 -0.17747445 0.016878583 -0.15264119 -0.21571638 0.086537 -0.061915588
0.094300136 0.10718638 0.2323682 0.15807742 -0.23715238 -0.20293431 0.20742951 -0.21734847

net.2.weight f4 [64, 32, 3]
00000000: 5573 8b3d d09f 67bd 5227 b33d 7c3c 7d3d
00000010: a7fe 88bd c507 a1bd 566a 35bd 4742 35bd
00000020: 0127 66bd c34b 933d 9d47 de3c b0dd 51bc
00000030: 0ea1 efba ee1c 3d3d 95da 783c 3ae2 51bc
00000040: 8c4d b83d 36f8 8a3d a3e2 513c afd6 9b3d
00000050: 4c06 86bc 92e7 92bd bdaf 833d 2b64 7e3d
00000060: 563c 733c 3ba2 b5bd 9b8c 933d 8449 8c3b
00000070: cbb4 5dbd 9468 b8bd 99d6 41bd a9c1 cd3d
00000080: 42cd 643d f34d 22bd d528 b83d fce8 be3d
00000090: 4150 623d b574 2abc 770e c63d a721 b9bc
000000a0: d905 34bd 5fcf 453d 51f8 44bd 30fc 8d3d
000000b0: 4682 75bd f211 2f3d 13ab 8ebd 899f 7ebd
000000c0: e6f9 2d3c b902 b03d 4f53 94bd c5c3 b9bc
000000d0: 75fb 463d 7f58 a1bc fe4d b0bd 50b2 8a3b
000000e0: 4982 f8bc d7f8 d53c 29ce 283d da15 fbbc
000000f0: dd0e 6cbd 9e4d 643d 09b9 bbbd 0a79 3d3d
00000100: dabe 183d 65b7 2a3d 0b7f 86bd f6d4 3c3d
00000110: 7090 62bd 502c 3a3d 3171 4bbd 084f a63c
00000120: ffac 4b3b 221f 91bd 5e53 c2bd c460 c3bc
00000130: adb9 703d 150a e8bc d101 aabc b919 6dbd
00000140: 5481 8cbd e308 2cbb 89d8 abbc 426d 2c3d
00000150: fc7b ca3d 81e5 90bd e10c f8bc d250 2d3d
00000160: 7b45 8abd 2e38 47bc ec84 3ebd b96e 8e3d
00000170: 43ca b8bb 02c9 cf3b b9c1 643d 964b 9bbd
00000180: d52b 4bbd 0c2d ad3d 8183 3c3d 643c a9bb
00000190: eb30 d93d 92db bf3d e2ec 1ebd a104 bebc
000001a0: ceb6 4a3d f5f5 6cbd e3e2 c3bd 1c50 3bbd
000001b0: 4313 b9bd 8126 8b3d 8ad7 f23c 3148 a4bd
000001c0: 5a43 b53a 68ff d33d 1752 5ebd 6a99 72bd
000001d0: 8575 493d ec55 88bd eaff b7bd fb49 813d
000001e0: 0284 09bc da9c 6f3d b575 8cbc d024 d03d
000001f0: 3f2c 15bd fb3e b93d 1468 57bd 1041 fcbc
00000200: 5c16 ac3d 6ce5 4e3d 7a75 8dbd 7006 9fbb
00000210: ac84 813d 6ae0 9bbd cc9a 073c 684b 8b3d
00000220: 0e60 94bd eaac 353d 0596 d4bd 2ec5 cebd
00000230: 0c1e 5cbb e017 b2bd 989d 2abd ca87 863d
00000240: ed07 6abc 03d9 80bd 1447 b53d 0be0 cebd
00000250: 0cdd 9d3c dfa4 87bd 3f1a 53bd cb78 603c
00000260: 39e2 d83d 4ae2 b1bc 0ba6 c4bd 4305 e13c
00000270: 34b2 25bd 5505 8abd 4b6f 263d 4188 143d
00000280: fc64 5fbd 86a4 6a3b 73c4 a03c f064 4c3c
00000290: d016 2ebc 04de 5abd ca8f 7d3d df76 a93d
000002a0: 801a b43d f59a b83d d528 093a ecb5 5f3c
000002b0: 59d1 0fbd 9f0a 99bc 8be0 003d 5d9a 5a3c
000002c0: 34de 8abd c396 8abd 6b8c 573d deff a93d
000002d0: 0fa5 cd3d da97 8b3d 4431 843d 1a27 3c3d
000002e0: 39cd 8a3d 636a dbbc 9320 ab3c 4802 3e3d
000002f0: dab2 db3c 5de4 66bc be45 6ebd e679 9dbd
00000300: f19b 5abd 78ff 7a3c 22af cb3d c6bd 07bd
00000310: 08ca a1bd 9b65 adbd 1472 383d 0be8 423d
00000320: 5975 4abd c493 0abd 53b7 ad3d d321 a5bd
00000330: c3cd 813d cb45 e03b 44ea 34bd d192 d53d
00000340: 588f 7bbd 4310 c83d 121b b83d 5d77 253d
00000350: 7c0a 933d 1fb1 f63c 2b06 ba3d 4a79 e63c
00000360: 87b7 c8bd 51af 20bd c38c 983c b368 9e3d
00000370: da0d c4bc 22bc 2e3d 47a2 343d 057d 653c
00000380: fb9a a1bd 7d12 d33d 8cef 33bd a918 af3c
00000390: b42b 16bd 7aad ec3c 5eab 933d 2c0a dd3c
000003a0: 6f57 1fbd 0bc0 e53c 21fc b6bd aa14 a43d
000003b0: 4dfe 483d 628d a03d a494 fe3c 036b c5bd
000003c0: c7ef 89bd c232 b3bd 0bbd 843d a059 c43d
000003d0: 1f14 853d 07aa 2fbd 309c 68bd e739 5cbd
000003e0: 0c89 cf3d cff5 bdbd 777b c1bd 5883 433d
000003f0: bfeb 163c f24a 58bd a69b 73bd 3012 d1bd
0.06809107 -0.056548893 0.08747734 0.06182526 -0.06689196 -0.0786281 -0.044290863 -0.04425266
-0.05618954 0.07192185 0.027133757 -0.012809202 -0.0018282251 0.046170168 0.015188833 -0.012810284
0.08999166 0.06785624 0.012810382 0.07609307 -0.016360424 -0.07173075 0.06430004 0.062107246
0.014845928 -0.08868834 0.07204553 0.0042812247 -0.054127496 -0.09004322 -0.047323797 0.10046703
0.05585981 -0.03962512 0.08992163 0.09321782 0.055252317 -0.010403802 0.09670728 -0.022599055
-0.04395089 0.048293468 -0.048088375 0.069328666 -0.05993869 0.042741723 -0.069662236 -0.062163863
0.010618662 0.08594269 -0.07242452 -0.022676358 0.04857965 -0.019695519 -0.08608626 0.0042326823
-0.030335562 0.026119633 0.041212235 -0.030650068 -0.057631362 0.055738084 -0.09166152 0.04625801
0.037291385 0.041678805 -0.065672 0.046101533 -0.055313528 0.045452416 -0.049668495 0.020301357
0.0031078456 -0.07086016 -0.09488557 -0.023849852 0.058770824 -0.02832512 -0.02075282 -0.05788586
-0.06860605 -0.0026250414 -0.020977275 0.042096384 0.098869294 -0.070750244 -0.030279579 0.042313404
-0.067515336 -0.01215939 -0.046513483 0.069547124 -0.005639346 0.0063411007 0.05584881 -0.07582776
-0.04960235 0.08455858 0.04602385 -0.00516467 0.106050335 0.093680516 -0.038800128 -0.023195567
0.049490742 -0.05785175 -0.095647596 -0.045730695 -0.09036877 0.067944534 0.029643793 -0.08021582
0.0013829276 0.10351449 -0.054277506 -0.05922834 0.04918434 -0.06657013 -0.089843586 0.06312939
-0.0083932895 0.058499195 -0.01714597 0.101632714 -0.03641915 0.09045216 -0.05258949 -0.030792743
0.08402702 0.050511762 -0.069071725 -0.0048530623 0.06324133 -0.07611163 0.008276653 0.06801492
-0.072448835 0.044354357 -0.103801765 -0.10096203 -0.0033587245 -0.0869596 -0.0416542 0.065688685
-0.014284116 -0.06291392 0.08851448 -0.101013266 0.019270442 -0.066232435 -0.051538702 0.013700674
0.105900235 -0.021714348 -0.09601983 0.02746833 -0.04045315 -0.06739298 0.04063348 0.036262754
-0.054539666 0.003580363 0.019624924 0.012475237 -0.010625556 -0.053434387 0.061904706 0.08274626
0.08794117 0.09013931 0.00052322197 0.013654213 -0.03511176 -0.018681822 0.03146414 0.013342467
-0.06780663 -0.06767037 0.052624147 0.08300756 0.10041248 0.06816073 0.06454709 0.045935728
0.06777424 -0.026784128 0.020889556 0.046388894 0.026818682 -0.014092532 -0.05817198 -0.07689266
-0.053371374 0.015319698 0.09945513 -0.033139966 -0.078998625 -0.08466645 0.04503067 0.047584575
-0.049428318 -0.033832327 0.08482232 -0.08063092 0.06338074 0.0068442575 -0.044168726 0.10428394
-0.061416 0.09768727 0.08989538 0.040397037 0.07179734 0.030113755 0.09083208 0.028134007
-0.0980063 -0.039229695 0.018621808 0.077348135 -0.023932386 0.042659886 0.044100072 0.014006858
-0.07890888 0.10306261 -0.04392962 0.021374064 -0.036662772 0.028891314 0.0721042 0.02698239
-0.038901743 0.028045675 -0.089348085 0.08011754 0.049070645 0.07839467 0.031076737 -0.096395515
-0.06735187 -0.08749916 0.064813696 0.09587407 0.064979784 -0.04288676 -0.056789577 -0.053766157
0.101335615 -0.092754 -0.09447377 0.04773268 0.00921148 -0.05280585 -0.05947461 -0.10208547

net.2.bias f4 [64]
00000000: 73c0 2a3b df6a 8f3d 718f 313d f2fe 873d
00000010: 7066 0a3c dd93 fbbc b918 bbbd de3e 5bbd
00000020: 6488 1fba 23e7 85bd edab 95bc 0abc 983d
00000030: 02d2 963c 3127 e5bc e5f7 c8bd f113 c1bd
00000040: 249f 24bd ee99 bc3b 0a66 aa3c 993f 553c
00000050: 0769 cdbd 9582 4abd e2f1 aebd eb64 0fbd
00000060: b7be 353c 4e55 8cbd 5352 763d ee21 863d
00000070: 4740 71bd 13eb 60bd 4044 083c 90f6 003d
00000080: 0d7a db3d 4f13 89bc c79b c0bd c7a0 bf3d
00000090: fa8a 043d 24a1 debb d279 2ebd c88d 56bd
000000a0: 1b70 883d cb43 4f3d 1ba1 c23d ff4c bdbd
000000b0: fdc6 69bd cedd 993b d1fa 263c a85b a53d
000000c0: 0827 65bd e581 b53d e97b 78bd 649d bcbd
000000d0: afd5 bbbb e660 8fbd 405c ebbc 4d59 a13d
000000e0: 3497 96bd fe41 7abd 4f63 103c f056 a0bd
000000f0: 7785 4cbd 14dd b9bc 3ce1 4ebd c588 5ebb
0.002605465 0.07002806 0.043349687 0.06640424 0.008447275 -0.030710155 -0.09135575 -0.05352675
-0.00060856924 -0.065382265 -0.018270457 0.074577406 0.018410686 -0.02797279 -0.09812907 -0.09427632
-0.04019083 0.0057556545 0.02080061 0.013015651 -0.10029798 -0.04944094 -0.08542229 -0.035008352
0.011092833 -0.06852208 0.060137104 0.0654944 -0.05889919 -0.054911684 0.008317053 0.03148514
0.10716639 -0.01673284 -0.09404712 0.09356838 0.0323591 -0.006794112 -0.042596646 -0.052381307
0.066620074 0.05060176 0.09503385 -0.092432015 -0.057074536 0.0046956306 0.010191635 0.08074123
-0.055945426 0.08862666 -0.060665045 -0.092097074 -0.00573226 -0.07000904 -0.028730512 0.07878361
-0.073530585 -0.06109809 0.0088127395 -0.07829082 -0.04993197 -0.022688426 -0.05050777 -0.0033956033

fc.weight f4 [1, 64]
00000000: 9682 963d e15a 043e ca86 cc3d e03e d8bd
00000010: 2755 5a3d 6d52 cb3d 6a0f b3bd 165a c4bd
00000020: dffb a7bd 0a36 713d 3e8b 67bd 24d5 95bc
00000030: 0c42 5c3d 7671 dc3d bba1 d53d 5770 d6bc
00000040: 1be8 bf3c 485c ea3d a018 ac3d 490b d9bd
00000050: 1c99 6b3d d6e0 893d 869c 08bc b332 f23d
00000060: 0a12 83bd 21ec ee3d 348f 4dbc 1b2f 64bd
00000070: 347a a03c eb1f 4dbd 3bb2 9a3c 420c 453d
00000080: 09ae 903d 705d f4bd 58aa c3bd 9c18 debd
00000090: 5baa 8cbd 4eb8 ecba 763e 0fbc 24c2 b53b
000000a0: 42a7 c6bb ab18 24bb 0711 d73d 3d16 2e3d
000000b0: 3c00 0e3d 7106 b03d 4800 61bc b9bd 29bd
000000c0: 904a ae3b fecf cbbd 1636 213c d67c 2bbd
000000d0: a976 9dbd 3c29 85bd c3a8 863b c5de 24bd
000000e0: a987 04bc b141 d4bd af02 003e 145e 043d
000000f0: eaa0 68bd 4701 e0bd b817 a7bd bc95 313d
0.07349126 0.12925293 0.099866465 -0.105588675 0.053303864 0.09927831 -0.087431744 -0.09587495
-0.082023375 0.058889426 -0.056529276 -0.01829011 0.053773925 0.107638285 0.10431238 -0.026176615
0.023426106 0.114433825 0.08403134 -0.105978556 0.057519063 0.06732337 -0.008338099 0.11826076
-0.06399925 0.11666132 -0.012546349 -0.055708986 0.019589521 -0.050079267 0.018883815 0.048107393
0.070644446 -0.11931884 -0.09553975 -0.108445376 -0.0686843 -0.0018060298 -0.008742919 0.005546825
-0.006062419 -0.0025039117 0.105012946 0.042501677 0.034668192 0.085949786 -0.013732977 -0.0414407
0.005318947 -0.09951781 0.009839555 -0.0418671 -0.07688648 -0.065020055 0.0041094734 -0.040251512
-0.0080889845 -0.10364092 0.12501024 0.032316282 -0.056794085 -0.10937744 -0.08158821 0.04335569
