assets/models/ict/ict_1m.onnx (onnx, 457496 bytes, 10 tensors)

net.0.weight f4 [64, 7, 5]
00000000: e18b 6abe efd3 fd3d 3be5 c73c 36c7 08be
00000010: 7112 29be f28b 283e 6481 583d d17e 553e
00000020: 8d50 153e 2c1f 06bd 95f6 883d 97d9 e43d
00000030: 4f1d 8c3d 17a0 81be d4ec 413e de60 1cbe
00000040: b5ff 303c c4dd e6bc 5d17 823d 3037 98ba
00000050: 7091 0f3e 0879 ab3d c95b 883e 0a1d 19be
00000060: 384f bd3d 9694 fd3d c968 bebd 29dd 4a3e
00000070: 083a d0be 40c3 303e e68b 2abd 2910 5bbc
00000080: 8282 833d eba1 5abe 4e51 d83d 14ee a83c
00000090: 1e4a 243d 7282 51be dc8e 4b3d dac3 22be
000000a0: 5c2f a63d b0ba 483d cffd ddbd 1e54 5b3e
000000b0: 84a3 9abd 3cac 9bbe e3ae 8c3c 5e41 81be
000000c0: 46a1 403e 2706 513e 1acd 923d 1a23 dfbd
000000d0: d1cf 54bd f2b8 b13d 2456 1ebd 50c6 0f3e
000000e0: 583d 033e 2e58 fc3d 84ce 393e 7abf 0e3e
000000f0: aab5 55be 7ba9 093d 17ad 30be 535a d63d
00000100: 63d8 073e ead9 0b3d 0ee5 62bd 9dd0 343d
00000110: 8cae 12bd b914 c7bc d746 c33d 9a1c b23d
00000120: 2d93 163c 75aa bc3d f677 c23d ca30 c03c
00000130: c322 a9bd 3cb8 e33d f419 34be fd16 8cbd
00000140: 4930 53be 3fb8 e33d 1fa8 673e 08b0 d63d
00000150: 5280 023e a540 39be cbc9 9d3d 4a75 ba3b
00000160: 9688 f5bd ab9e 3f3d 56b0 6cbd da25 493e
00000170: 0fa9 9e3e 02b8 ff3d d15a ba3c 83b1 753d
00000180: 806b 573e 60a2 5ebd 12be 3c3d 9bdc b83d
00000190: 6da0 b1bd 7a4b d93d a72c ecbd 5b93 bc3b
000001a0: 2649 8dbd 16c4 efba a941 683e 8e82 3c3e
000001b0: 34ee 9c3d 670f 7e3d 5472 14be 8554 22be
000001c0: e2bd c6bd 8148 bebd 51ed dcbd 29cc 92bb
000001d0: ca9f 5f3e beec 98be cc3c cebd 3a92 42be
000001e0: 2d51 2d3b f86c 683d 7305 13bd 4ed5 cc3c
000001f0: bf9e d3bc 0576 84be 9793 c0bc cb53 cc3d
00000200: 9a80 53be f5b9 89bd 6bd4 433e 3053 133e
00000210: 4811 d1be 9515 963c 88fb 0cbe 28f0 0abe
00000220: 0039 db3d f5b7 7cbd c187 293e 1866 21be
00000230: 9e03 4e3e 9499 913e 17b7 233d b1b2 463e
00000240: eb5b 273e c145 56be 393c 9dbe 3712 7d3d
00000250: f5d1 e2bd 9a3b 303d bfaf 8ebc 2718 dc3b
00000260: 0cc4 19be 86cd 353d 3410 ddbd c79f 193d
00000270: 14c8 9b3e 8cae a0bc 91ce 7a3d 6373 173e
00000280: c31a aabd 2f23 51bc 9340 823e dbdf 5c3d
00000290: 1994 a83d 83ad a43e 8d4d f5bc 00e6 b8be
000002a0: b4fc 323c b8f5 96be de43 bdbc eeb3 aabd
000002b0: 6a15 d8bd 3a19 423e dcf9 e83d 2486 e5bd
000002c0: fc0f 06be 1c1d 013e 3006 353d 5fd3 01be
000002d0: 4620 053d e8e0 babd 55f6 a33d 9dd0 a1bd
000002e0: 09ff 363e 3612 25be a609 36be ddfb 02be
000002f0: af8d eb3d 96c8 3dbc e307 863d d13b 163b
00000300: 198b bebd 6cbf 3fbe 5693 62bd 4d32 173b
00000310: 4fdd c93d 57e8 883e 687a 043e d824 08bc
00000320: 3ef7 f7bd 33fb 05be 1ba0 34be 2af3 0f3e
00000330: 1b07 7abe b239 8d3d a65e 92be 515e 72be
00000340: 90c6 49be 76b0 433e 4707 f93d 8a11 57bd
00000350: 11b3 2ebd 94f6 473d 8522 d4bd da6a 12be
00000360: c46d 203d 27d7 bbbd 06f9 4c3d efcf 09be
00000370: 840d d63d 4417 1a3c 1c90 293e 7971 6a3d
00000380: 3bf4 33bd d102 153e 40f3 413d d6cd 99bc
00000390: 3cd5 c43d eca0 21bd 02db 8abc ae32 113e
000003a0: 1493 d73d 5b6c 0dbe 29a0 95be 83bc e63d
000003b0: 32c9 213d 1275 2f3e 277e 22bc 42c8 23be
000003c0: 9bae 703e d5cc ddbc 1430 efbd 7cf2 fa3d
000003d0: c8a7 bb3c d5dd 14be a4aa 46be 5efe 163e
000003e0: 1824 52be f2df 6cbe 7f25 bfbd 910b 013e
000003f0: 405e 12bd cf30 31bd 4f93 e53d e94b 9cbe
-0.22904922 0.12393939 0.024401298 -0.13357243 -0.16510941 0.16459635 0.05285777 0.20849158
0.14581509 -0.03274457 0.06687657 0.111743145 0.06841528 -0.2531745 0.18937999 -0.15271327
0.010803153 -0.028181918 0.063521124 -0.0011613127 0.14020324 0.08372694 0.26632527 -0.14952484
0.092436254 0.12381856 -0.0929733 0.19810928 -0.40669274 0.17261982 -0.041637324 -0.013370552
0.06421377 -0.2135083 0.10562383 0.020621337 0.040109746 -0.20459917 0.04969679 -0.15895024
0.08114502 0.049006164 -0.10839426 0.21418807 -0.075507194 -0.30404842 0.017173236 -0.25245184
0.18811521 0.20412503 0.07168026 -0.10895367 -0.051956 0.08677854 -0.03865637 0.14040494
0.1281637 0.123215064 0.18145186 0.1394023 -0.2087008 0.033608895 -0.17253529 0.10466447
0.13266139 0.034143366 -0.055394225 0.04414426 -0.035810992 -0.024301874 0.09534996 0.086968616
0.009190363 0.092121996 0.09495537 0.023460764 -0.082585834 0.11119124 -0.17588025 -0.06840322
-0.20623888 0.111191265 0.22622727 0.10482794 0.12744263 -0.18091066 0.077045046 0.0056902515
-0.11988942 0.046782177 -0.057785355 0.19643345 0.30988356 0.124862686 0.022748383 0.05998374
0.21037102 -0.05435407 0.046079703 0.09026452 -0.08673177 0.10610099 -0.11531954 0.005754871
-0.068987176 -0.0018292691 0.22681297 0.18409178 0.07662621 0.062026408 -0.14496738 -0.15852554
-0.09704186 -0.09291173 -0.10787452 -0.004479904 0.21838298 -0.2986812 -0.1007019 -0.19001094
0.002644609 0.056744546 -0.03589387 0.025004055 -0.025832532 -0.25871292 -0.023507876 0.0997692
-0.20654526 -0.067249216 0.19124 0.14387202 -0.40833497 0.018320838 -0.13767827 -0.13568175
0.10704231 -0.061698873 0.16555692 -0.15761602 0.20118567 0.28437483 0.03996953 0.19404103
0.16343658 -0.20925047 -0.3071001 0.06178495 -0.110752024 0.04302559 -0.017417787 0.0067167464
-0.15016192 0.044385456 -0.10794106 0.03750589 0.30426085 -0.01961448 0.061232153 0.1479011
-0.08305886 -0.012764736 0.2543989 0.053924423 0.082313724 0.3216363 -0.029944206 -0.36112976
0.010924507 -0.29484344 -0.02310365 -0.083351 -0.105509594 0.18954936 0.11375782 -0.11207226
-0.13092035 0.1260876 0.044195354 -0.12678288 0.03250148 -0.09124929 0.080059685 -0.07901118
0.17870726 -0.16120228 -0.17777118 -0.1279139 0.115016334 -0.011583468 0.06544473 0.0022923837
-0.093038745 -0.18725365 -0.05531629 0.0023070753 0.098566644 0.2673976 0.1293732 -0.0083095655
-0.121077046 -0.13084106 -0.176392 0.14057603 -0.24416773 0.0689577 -0.28587836 -0.23668791
-0.19704652 0.19110283 0.12159591 -0.05250696 -0.04265124 0.04881914 -0.103581466 -0.14298573
0.03916718 -0.091718964 0.050042175 -0.13458227 0.10451797 0.009404961 0.1655888 0.057237122
-0.04393409 0.14551856 0.047351122 -0.018774908 0.09610984 -0.039460108 -0.016950134 0.14179489
0.105261 -0.13810866 -0.29223755 0.112664245 0.039498515 0.17134503 -0.009917772 -0.15994361
0.23504107 -0.02707521 -0.11679092 0.122532815 0.022907153 -0.14537747 -0.19401032 0.14745471
-0.20521581 -0.23132303 -0.09333324 0.12602068 -0.035734415 -0.043259438 0.112097375 -0.30526665

net.0.bias f4 [64]
00000000: 35fa 1b3e bbc8 c13e 665b 4d3e f842 3dbe
00000010: eb13 aabc 1268 2ebe 5889 ca3e dc16 453d
00000020: 9ab7 45bd 3bc3 36be 601b 02be 7a1b 19be
00000030: 1811 f13d b513 ce3e c19f a73d 6e56 083d
00000040: e912 d73e 01c1 fb3e 6c20 d9bd 196e d5bd
00000050: 744b 0e3d 72f4 8e3e 69bd 743e 173e eabc
00000060: 9ed8 7c3c 1353 843e c272 b63e 8f40 343c
00000070: d85e a13e 5aa4 43bd af09 46bd 77a4 ac3d
00000080: 83dc b9bd 4ed8 e2bd e93f b33e 5c44 23be
00000090: 8553 2cbe 6aaa 4b3d 6ac8 783e 8c47 a03e
000000a0: 9a58 ec3d ef9b 15be 3d47 da3e e458 3f3d
000000b0: b737 12bd ac0f 94be 71eb b53e 0115 aebd
000000c0: 8863 033f 65a3 9b3e 6d96 42be 157c babc
000000d0: d907 353c f1c9 ee3c 146b a23d 90f6 ba3e
000000e0: c7d9 e83d 6b6e 4abe 1397 873e c939 f93e
000000f0: cfa8 63be 291a bd3e c17c b13e 943b e63e
0.15232165 0.37848458 0.20054397 -0.18482578 -0.02076145 -0.17031887 0.3955791 0.048117504
-0.0482708 -0.17847912 -0.12705755 -0.14951888 0.117708385 0.4024941 0.081847675 0.03328555
0.42006615 0.49170688 -0.10601887 -0.1042139 0.034739926 0.27920872 0.23900379 -0.02859406
0.015432505 0.2584463 0.35634428 0.01100172 0.31517673 -0.04776416 -0.04834908 0.08429807
-0.090752624 -0.11076413 0.35009697 -0.15944046 -0.16828735 0.049723066 0.24295202 0.31304586
0.11540337 -0.14610265 0.42632475 0.046715632 -0.035697665 -0.28918207 0.3553119 -0.085001
0.5132375 0.30398098 -0.19002695 -0.022764245 0.011049234 0.029149028 0.0793058 0.36516237
0.11369663 -0.19768684 0.26482448 0.486769 -0.22232364 0.3693402 0.34665492 0.4496733

net.2.weight f4 [64, 64, 5]
00000000: 6ab3 94bd 6f45 323d ee74 94bd bbdc 17be
00000010: b596 793c 1a03 d23c 1ab3 41be 5110 7e3d
00000020: ceff ecbd 4d06 9abd 73a4 99bd 0541 9cbd
00000030: 9620 3dbc 38e8 43be 642b 19bd f2ac f23d
00000040: cbc0 b8bd d770 3d3e e935 cbbd a0b1 18be
00000050: f406 e93d 34f1 41bc dcbf 283e be38 f8bd
00000060: ded5 d9bc 64b8 853d 2cbc c23d 5cc2 2ebb
00000070: 1c3e e4bd 041a d4bd b1bb 49bc 9b86 b6bd
00000080: bb34 7abd ed3a 4ebd 2d72 10be 94dc d7bc
00000090: 2d36 4f3c 7ed0 563d dd6f b83d 0dc7 6cbd
000000a0: 8309 2b3e 1b9f 513e fbbf 2d3d 0ca6 0f3d
000000b0: 2b33 f4bd 0cb2 173e 3dcf 083e 90ca 9ebd
000000c0: 7b9e 8f3d 335f 99bd 2874 f03a 12a6 de3d
000000d0: 0856 d4bd f66b 00bd 0425 bbbe 7818 493d
000000e0: 2cd3 ae3d b7e9 133e db88 31be 7927 46be
000000f0: 6324 093e 965e 763d 6f9d 12be e11f 66be
00000100: 2e51 5ebe facb 133c 4b0f 09bc 4293 763d
00000110: 91f3 01be 5a66 12be f4c5 e73d 4a62 90bd
00000120: 3ddd b23c 51c9 0abd a3e0 16be 0dee 293d
00000130: 70a5 023e 3af9 7b3b 4488 80be ccb3 b5bd
00000140: 1895 573d 6098 3cbd 8634 0abd d5cf 87bd
00000150: bb2c 28bd 0695 a73c 7b6e 4fbd 9a7e 323c
00000160: d014 e0bc ed11 fabd 88f4 3b3d a282 2abe
00000170: 29d8 8d3d dd25 63be 96de 29bd 5dd4 e53c
00000180: daad d03c 79c3 483b 0282 823c c61e 56be
00000190: 1180 8fbc c69e 9f3c a0ef 7fbe 722f c4bd
000001a0: 9a63 9ebd 17fe 2f3d fc09 88bd 0995 ca3d
000001b0: a322 84be 3966 c0bd dbb1 3cbd 1034 8d3d
000001c0: 6c6e 96bd 0c97 8abe 06d6 7dbd 34e5 e7bc
000001d0: 6115 7c3d 4037 083e 4f8c a0bd 4cd4 3abe
000001e0: 57f5 a2bc b2d2 33be e2ef a43d 6fed 61be
000001f0: 2519 f8bd 4354 943c 8274 5b3d c738 bc3d
00000200: cbe0 0ebe 62ae 87bd 6a05 aa3c ae76 cabc
00000210: fe10 e9bd 67d7 b1be 00b0 e4bd 0ca9 8b3c
00000220: 768c d63a 69c6 6a3e d528 4dbe 5fab 89bd
00000230: ff0a b4bc 0bbb 3ebe ac1c 83bd d3b5 47bd
00000240: f8c8 3ebd a2de 283e 8575 6f3d a83c 81bd
00000250: ebd2 4e3d 66e2 99bc 783a 823d 6de3 fe3d
00000260: 7ac3 cd3d 8935 4cbd 731d e53c 1c84 24bd
00000270: b98c bc3d 225c 42be 5a2f 1dbe ec63 4bbc
00000280: a976 9a3d 18de 063e 022b 3e3d 3abf 65bd
00000290: 0b50 04ba 2443 283d 47d4 bf3d 319c 803e
000002a0: bf89 8fbd 67a8 e7bc 8123 f0bc 570e 87bc
000002b0: c2ef 37be c833 343c 8526 b7bd 52cc c0bb
000002c0: 7cb3 453e aa0c 2cbd dc65 2fbe fcbe 1dbe
000002d0: daea 103d cb55 2e3e ddab 10be 015b 413d
000002e0: 1cc2 37bd aec2 1f3e 74ff 363c ad84 1bbd
000002f0: 90da 4cbd 8e45 86be a6f3 27bd 989a a53d
00000300: 9d0f fc3c 08b6 c3bc 2f45 23be 3c69 f53c
00000310: 4911 1fbd 1912 543d 588e 0d3d 14a2 0abe
00000320: 3cc7 16bd 6e5a 9dba 08b3 12bd a5c0 9ebd
00000330: b481 8bbd 8dcf 2a3e 81c6 aa3d 56c6 293d
00000340: bec0 b2be 497b 10be 82e8 533d 3709 cd3b
00000350: 22b5 543d 3934 33be 0115 1fbe 9caa 923d
00000360: e793 f73d 2d7e 813e 0502 1fbb 0c0c 85bd
00000370: 46c1 0ebd f814 1fbc 1a2f adbe e381 4dbd
00000380: 38db 0bbe 97e2 193e 4dbe 623e 3616 313e
00000390: 0073 a53d b576 3cbe fcaa 9c3c 76ed 5cbd
000003a0: f058 673a 3ae7 02be 431a cebd f156 0c3e
000003b0: 1928 06be 1f69 bb3d 6242 b7bb 9494 c7bd
000003c0: 7d25 1c3d c8a1 c2be 8ed9 54bd a6f0 e0bd
000003d0: 2d29 3abe f414 763c b068 08bd 1981 073e
000003e0: 495c 82be bf0e 7dbe 282f 383d c9e3 c13c
000003f0: 5bac d23d dcf6 56be c089 a7b8 71ec 0a3e
-0.07260783 0.04352325 -0.07248865 -0.14830296 0.015233685 0.025636245 -0.18915978 0.06202728
-0.11572228 -0.07520733 -0.07502069 -0.07629589 -0.011543414 -0.19131553 -0.037394896 0.11849393
-0.09021147 0.18500076 -0.09922392 -0.14911509 0.11378279 -0.011837292 0.16479439 -0.12120198
-0.026591238 0.0652931 0.09508547 -0.002666614 -0.11144659 -0.103565246 -0.0123128155 -0.08912393
-0.061085444 -0.050349165 -0.14106055 -0.026350297 0.012647194 0.052444927 0.09005711 -0.057807017
0.16702847 0.2047085 0.042419415 0.035070464 -0.11923822 0.14814013 0.13360305 -0.077534795
0.070126496 -0.07488861 0.0018345164 0.10871519 -0.10367972 -0.03135296 -0.36551678 0.0490956
0.085363716 0.14444624 -0.17337362 -0.19350995 0.13392787 0.060148798 -0.14317869 -0.22473098
-0.21710655 0.0090208 -0.0083654625 0.06019903 -0.1269057 -0.14296857 0.113170534 -0.07049997
0.02183401 -0.033883397 -0.1473413 0.04148679 0.12758422 0.003844811 -0.25103962 -0.08872184
0.05263242 -0.046043754 -0.033741497 -0.06631438 -0.041058283 0.020456802 -0.05064247 0.010894442
-0.027353674 -0.1221045 0.0458875 -0.16651395 0.06925995 -0.22182412 -0.04147204 0.028055364
0.025473524 0.003063409 0.015931133 -0.20910177 -0.017517122 0.019484889 -0.24993753 -0.09579362
-0.07733841 0.04296693 -0.06642529 0.098917075 -0.25807676 -0.093944974 -0.046068054 0.06894696
-0.0734528 -0.27068365 -0.061971687 -0.028307535 0.061543826 0.13302326 -0.07839262 -0.18245047
-0.019892378 -0.17560843 0.080535665 -0.2206323 -0.12114171 0.018106585 0.053577907 0.09190517
-0.13952939 -0.06625058 0.020754535 -0.024714794 -0.11380194 -0.3473465 -0.11166382 0.017048381
0.0016368765 0.2292725 -0.20035107 -0.067221396 -0.0219779 -0.18626039 -0.06401953 -0.048757385
-0.046578377 0.16491178 0.058461685 -0.063103974 0.050494116 -0.018784713 0.06358808 0.12445722
0.1004705 -0.049855743 0.027968144 -0.04016505 0.09206528 -0.18980458 -0.15350094 -0.01241396
0.07542164 0.1317066 0.046427734 -0.05609057 -0.0005047328 0.041079655 0.093666606 0.25119165
-0.07008695 -0.028278543 -0.029313805 -0.01648633 -0.17962554 0.010998674 -0.08942894 -0.005883732
0.19306749 -0.042004265 -0.171287 -0.15404886 0.035380222 0.17024915 -0.1412806 0.04720593
-0.04486285 0.15601608 0.011169303 -0.037968326 -0.050013125 -0.2622494 -0.041003846 0.08086127
0.030769164 -0.02389051 -0.1594436 0.029957406 -0.038834844 0.05177507 0.034559578 -0.1353839
-0.0368111 -0.00120051 -0.03581527 -0.07751588 -0.06811848 0.16680737 0.08338643 0.041448914
-0.34912676 -0.1410953 0.05173541 0.006257202 0.051930554 -0.1750039 -0.15535356 0.071614474
0.12088757 0.25291577 -0.0024262678 -0.064964384 -0.03485229 -0.009709589 -0.33824998 -0.050172698
-0.13657844 0.15027843 0.22142906 0.17293629 0.08078575 -0.18404658 0.0191245 -0.053937398
0.00088252034 -0.12783518 -0.10063603 0.1370504 -0.13101234 0.0915091 -0.0055926302 -0.09745136
0.03812169 -0.38014054 -0.05196529 -0.109834 -0.1817977 0.015019644 -0.033302963 0.1323284
-0.25461033 -0.24712656 0.044966847 0.023668187 0.102867804 -0.20992607 -7.9888385e-05 0.13566758

net.2.bias f4 [64]
00000000: 68bd 02bd db0d 3d3b b370 53be 85a1 b7bc
00000010: ea3b 873e cfc4 9c3c e45b 7bbd a4b6 89bd
00000020: ec5b 25bc 4cb7 373e 197d 6abd 4451 a6bd
00000030: 4911 483e bee4 63bd 6b5f 91bd 342d 083c
00000040: 8476 67bd fd63 64bd dc72 4e3e 7fb3 9fbc
00000050: a9e5 15bd 8f31 ecbd a54a 2e3d b68d 253e
00000060: 77c1 90bd 25f0 fabc 558d c43c b62b 313e
00000070: 07a9 093d 1c01 26bc 9247 aa3c 6a51 09be
00000080: b42e 9d3d cfea fbbc 384c ef3d 35b0 88bd
00000090: 01dd 7dbd 57a0 ed3c 6e86 7f3e 6d46 be3c
000000a0: 9f7b 88bc 4f1a 8f3e 8704 183e 2e45 463e
000000b0: 134e 42bb 314e a63c 0e88 4c3c 646d a23c
000000c0: ebf8 bcbc 5d0f f33c bba5 383e b38e 4ebd
000000d0: cd1a babd 5d5a 0cbd 405d d5bc 6aa4 8f3c
000000e0: 1d75 353d b704 e83b fd44 9b3d f6e9 99bb
000000f0: 1b73 5cbd c79e 40bd def5 19bc a58c 003d
-0.031918913 0.002884737 -0.2064846 -0.022415886 0.26412898 0.019136814 -0.06136693 -0.06724289
-0.010092717 0.17941016 -0.05724821 -0.08120969 0.19537844 -0.055638067 -0.07098278 0.0083115585
-0.05650951 -0.05575942 0.20161003 -0.01949477 -0.036595974 -0.1153289 0.042551655 0.1616734
-0.070681505 -0.030632088 0.023993174 0.1730183 0.033608463 -0.0101321 0.02078608 -0.13409963
0.076749235 -0.030751614 0.116844594 -0.06674234 -0.061978344 0.02900712 0.24953625 0.023226941
-0.01666051 0.2794976 0.14845477 0.19362327 -0.0029648587 0.020300956 0.01248361 0.019827552
-0.023067912 0.029670412 0.18031971 -0.050429057 -0.09087143 -0.034265865 -0.026045442 0.017534453
0.04430114 0.00708064 0.07581518 -0.00469708 -0.05382071 -0.047026422 -0.009396998 0.03138413

net.5.weight f4 [128, 64, 5]
00000000: 6242 783d 9cc0 bebd c217 943d e25a 32be
00000010: a372 64be 4ae1 743b 461d 21bd 8216 8fbc
00000020: 0ed8 4bbb 4997 073a f18c 89bd 6604 2bbd
00000030: c6f0 4cbe 59f0 f6bc 13b4 e9bb aa92 47be
00000040: aa36 96bd 31a5 00bd 5eca 313d 19bd af3b
00000050: 3cf1 c03d 92e2 423d 2acf 60be 8e2b c7bd
00000060: 9f07 aabe cadb e13d 9dc3 b73d ce13 643d
00000070: f0b8 09bd a54b 853d b6a0 213d f2a6 353d
00000080: bc82 253c e510 0b3d beb5 5e3c a89a 1abd
00000090: 1f4f 0dbd e158 7038 76eb 9abc cba5 603c
000000a0: f9fa fbbd ada9 20bd 0aa7 21bd 1202 033d
000000b0: 00d9 63bd 0209 04be 1cd7 6cbd e65a 64be
000000c0: f1d6 10be 8a34 25be 9721 5fbd c7b9 7abb
000000d0: f7ba c73c ae6c 2bbd e910 78bd 0d70 86bc
000000e0: a888 933c 7bba 053d 7b74 a13b 73d9 fd3d
000000f0: 6814 513e a9ba b23d ff55 39be b7a3 98bd
00000100: 3697 64be a178 86bd 664a 86bd 1dc5 27be
00000110: f0fa a53d 0e87 03bf 8dd6 0f3d 5e35 57bd
00000120: de7e c4be e4bd 8ebe 9907 103e 9c5f 3a3d
00000130: 5a46 bbbd 11b5 cebd fcc3 1abd d67c 33bc
00000140: ffc7 35bd 2f24 bdbc d455 3cbd 3950 32bd
00000150: 36c1 fd3c ce40 0f3e bd21 ddbd 4b8c 2ebd
00000160: c571 363e b98e b93d 3e4e 973d e905 43bd
00000170: c253 34be 604b a8bd 5bfb 77bd 42da d4bd
00000180: 7f71 2bbe e70b 95bd 710d 2ebd 0695 d13d
00000190: 9cfc a2bd d714 103d 606d 92bc 6799 debd
000001a0: 1a14 b3bc 9b9b 42be 51a2 38be 6180 91bd
000001b0: d826 febc 10fe e2bd ad26 c93c ff44 393d
000001c0: 55b5 cb3c 7c1b 86ba 6b60 953d fce3 953d
000001d0: ed9c 29bd 5be7 9abd 5b26 503d 236f 70be
000001e0: 65c9 d13d 7cd4 343e 5219 ea3d 6114 343e
000001f0: c06a a53d 8f3e 5cbd 9eb1 3ebd a14d 17bd
00000200: b371 d93c 6d43 6fbc 4a57 ee3c a4ea 84bd
00000210: 3168 3bbd 85ee 30bb b170 77bc 237f 333e
00000220: 1e49 d43c 481f 0cbe 0e18 4fbd 10bd 18be
00000230: 1e91 42bd e779 5cbd c1bb 83bd aae4 d03c
00000240: d786 4cbd ee60 0fbb ccbe 64be b8cd b3bd
00000250: 627b 763d 30c4 053c b6bc 333e 1b64 043d
00000260: 498c 2f3e 5893 09be a6d8 f73a fe30 a5be
00000270: a80e 59be c860 11bd db60 95bd 562a 32bd
00000280: 0a2c 953d ff4f 10be 9afb 483d bf0e a9be
00000290: 7469 7abe 0b56 c9bc da90 d1bb 4e2b d5bc
000002a0: a683 34bd 19f2 f2bc 163c 953e 4232 cb3d
000002b0: 164c e93c 4bca 803d 1e34 7e3b 8798 923c
000002c0: 2a32 0bbd 9dd7 123d a8b6 843c e558 663c
000002d0: 7e8c 103d bd33 033d 99bf 88bc 8809 67bd
000002e0: 2239 813c 57c7 b93d 4777 84bc a777 afbd
000002f0: 947e 793c 914b 10be 20eb f53d c22b 25bd
00000300: 51fb f0bb 3836 5bbc 5196 d1bd 20f0 9a3d
00000310: f857 4abd 43c6 5e3d 1645 81bd 3349 aebd
00000320: cb29 b73c f35a 90bd 7980 e5bd 894e e43d
00000330: 70fa 3d3e e0a5 30bc 4c87 a9bc 03f3 c9bd
00000340: 3952 f3bc 7256 f8bd d048 4e3e bdf8 d33d
00000350: 5806 81be 2c80 b6be df7e adbe dffc 833a
00000360: 369b 8bbb 6ac1 31be 1466 42bd 4556 19be
00000370: be87 34bd 3323 953c 6bd3 f4bc 80cc c9bc
00000380: 6740 b83a 0809 c43c bf33 59bd 08c2 4abc
00000390: 7170 c8bc 188a 353d 9041 1ebd 42ec 043d
000003a0: 14ec b5bb ffe6 5cbb 9e72 16bd 88a9 783d
000003b0: 930f a0bd 494d 663d b668 6abd 202f aabd
000003c0: 2e4f 0b3d 3939 38bd 2949 883c 7d5e 483c
000003d0: bb10 083d adee 373b 443a fb3c 5897 2a3d
000003e0: 0d30 e1bb ceaa d23c 7795 6c3e 39d5 0d3e
000003f0: 0f5f 4e3c 9831 46be 25df a0be 2f9a 0d3d
0.060610183 -0.09314081 0.07231094 -0.17417482 -0.22309355 0.0037365728 -0.039334558 -0.017466787
-0.003110412 0.00051723846 -0.067163356 -0.04175224 -0.20013723 -0.030143904 -0.007132062 -0.19489542
-0.07334645 -0.03140754 0.043405883 0.0053631184 0.09421012 0.047579356 -0.21954027 -0.09725104
-0.3320894 0.110282496 0.08972857 0.05568295 -0.033623636 0.06508569 0.039459907 0.044348665
0.01010197 0.03395166 0.013593135 -0.037745148 -0.034499284 5.7303234e-05 -0.018911105 0.013711403
-0.123037286 -0.039224315 -0.03946594 0.031984396 -0.05562687 -0.12894061 -0.05782233 -0.223003
-0.14144494 -0.16133323 -0.054475393 -0.0038257705 0.024381144 -0.041851692 -0.060563 -0.016410852
0.018009499 0.032648545 0.0049272156 0.12394991 0.2041794 0.08727009 -0.18099211 -0.07453101
-0.22323307 -0.06565977 -0.06557159 -0.16383786 0.08104503 -0.5137795 0.03511672 -0.05254113
-0.38378042 -0.2787925 0.14065398 0.045501336 -0.09144278 -0.100931294 -0.03778456 -0.010955056
-0.044380184 -0.023088543 -0.04598029 -0.043533538 0.03097592 0.13989565 -0.10797451 -0.042614263
0.17816837 0.09060425 0.073879704 -0.04761306 -0.17610076 -0.08217502 -0.060542446 -0.10393192
-0.16742514 -0.07277661 -0.042493287 0.10233502 -0.07958338 0.035176124 -0.01787442 -0.10869103
-0.021860171 -0.19004671 -0.18030669 -0.071045645 -0.031024382 -0.11083615 0.024554575 0.045231815
0.02486674 -0.001023158 0.07293781 0.07318875 -0.04140942 -0.07563659 0.05081783 -0.23479895
0.10243491 0.17659181 0.11430611 0.17585899 0.080770016 -0.053770598 -0.046556108 -0.036939267
0.026543474 -0.014603478 0.029094357 -0.06490067 -0.04575366 -0.0026997637 -0.015102551 0.17528968
0.025913771 -0.13683808 -0.05056005 -0.14915872 -0.047501676 -0.053827193 -0.064322956 0.02549966
-0.04993328 -0.0021877843 -0.22338408 -0.08779472 0.06017626 0.0081644505 0.17552456 0.03232203
0.17143358 -0.13435113 0.0018909171 -0.3226394 -0.21196997 -0.03549269 -0.07293864 -0.043497406
0.072837904 -0.14093016 0.04906807 -0.33019063 -0.2445429 -0.024577161 -0.0063954415 -0.026021626
-0.044070862 -0.029656457 0.29147404 0.09921695 0.028478663 0.06288584 0.0038788388 0.017894996
-0.033983387 0.035850156 0.016200379 0.01405928 0.035290234 0.032031763 -0.016692923 -0.056405574
0.015774313 0.09071224 -0.016170157 -0.08567744 0.0152279325 -0.14091326 0.12007737 -0.040324934
-0.007354178 -0.013379626 -0.10233749 0.075653315 -0.0494003 0.054388296 -0.06312005 -0.085100554
0.022358796 -0.07048597 -0.11206145 0.11147792 0.18552566 -0.010781735 -0.020694397 -0.09860804
-0.029702293 -0.12125863 0.20144963 0.103501774 -0.25200152 -0.35644662 -0.33885857 0.0010069868
-0.004260446 -0.17358938 -0.04746063 -0.14974315 -0.044074766 0.01820526 -0.029885968 -0.024633646
0.0014057279 0.023930088 -0.053027865 -0.012375362 -0.024467679 0.04432115 -0.038636744 0.032451876
-0.0055518243 -0.003370702 -0.0367304 0.060708553 -0.078154705 0.05622605 -0.057228766 -0.0830977
0.03401106 -0.044976447 0.016636448 0.012229559 0.03321908 0.0028065846 0.030667432 0.04164824
-0.006872183 0.025716212 0.23103891 0.13850869 0.012595906 -0.19354856 -0.31420246 0.03457087

net.5.bias f4 [128]
00000000: 117a 02bd 23ab a2bd 5824 053e 5eb1 9f3d
00000010: 29f0 91bc 8297 d53d 3c79 ff3c 50f9 e83d
00000020: cffe c63d 768a 383e 32c9 f53d 685f 8bbc
00000030: 0e87 8b3c b258 7b3d b154 1d3d 365c 0c3e
00000040: cc00 553c e516 0a3e 8b44 93bd 47a9 8d3d
00000050: ad4f a7bd 4244 0ebe 32c6 fc3d fe74 9f3c
00000060: 7601 d13c 699f 093c 7bf6 8fbd d00b f93d
00000070: ae3c 3bbc 37c9 283e 31a5 913d b6e7 54be
00000080: 1573 613d 501e f33d fd6c cabc c3dc 7cbd
00000090: 368b 5c3c d2a4 af3c ae49 b33d 69f0 4bbe
000000a0: d7f9 d13c e86b 18be b8f5 a7bc 16e2 583c
000000b0: 2e53 053e 6e61 1d3e 8977 31be 5b94 00be
000000c0: 7319 aa3c 2722 2abd 1700 463e 1c5b d33b
000000d0: 2a29 dd3c 0411 6cbd 841a 233e 051c d53d
000000e0: 7441 fd3c 970c 26be cde8 003e 5659 0e3e
000000f0: 4de9 3a3d a428 b13d 1a01 0fbd e49e 273d
00000100: be98 b53d f010 86bd d97d 34bd 4780 42bc
00000110: b65c eabd cc8b 183e 1b3f 093e 5bda 1abe
00000120: 0999 823d ca11 1cbd 6edd 2239 a6fa 2bbe
00000130: cbbe e03d 311e ab3d 0a4d d83c c76e 703d
00000140: ca6f 65bd 8526 bd3d 70aa 333c 16b6 1bbc
00000150: a9ea aabd 3169 97bc ce8a 6a3d 48f8 053e
00000160: 7f45 093e dab3 d9bc 9020 8e3d d3d5 87bd
00000170: f797 a73d a623 a3bd 050b 42ba 97d1 7fbd
00000180: 82f0 093d a464 0bbe 5941 4d3d 06e1 c8bd
00000190: b37a 853d 5cc3 19bb ce18 1b3d 7b46 fb3d
000001a0: ec4c 693d 5e73 ab3a f50e 603d c2b1 e7bd
000001b0: 9cbf 5cbd 77ce ce3c 0793 25bd 364c ebbc
000001c0: a675 ccbd 081a d7bc 4f76 32bd dc7c 46bd
000001d0: c68a 3b3c 1876 733d be26 1cbd fc92 0a3e
000001e0: baa4 e0bd 7ba6 d6bd ede4 3c3d 495b 813d
000001f0: 90d7 243d 11d4 353c 00fb c83d f506 fd3c
-0.031854693 -0.07942798 0.13002145 0.07797502 -0.017814713 0.104292884 0.031185739 0.113756776
0.0971657 0.18021569 0.120012656 -0.017013267 0.017032173 0.061363883 0.038410846 0.1370705
0.013000678 0.13485296 -0.07190808 0.06917053 -0.08169494 -0.13893226 0.1234249 0.019464966
0.025513392 0.008399823 -0.07029434 0.12160456 -0.011428041 0.16483007 0.07111586 -0.20791516
0.05504139 0.11871016 -0.024710173 -0.061733972 0.013460925 0.021440897 0.08754288 -0.19915928
0.025631828 -0.14884913 -0.02050291 0.013237497 0.13020012 0.15369198 -0.17330755 -0.12556593
0.020764088 -0.041536476 0.19335972 0.00645007 0.026997168 -0.057633415 0.15928084 0.10405735
0.030915 -0.1621574 0.12588806 0.13901266 0.04563265 0.0865033 -0.03491316 0.040923014
0.08867024 -0.06546199 -0.04406533 -0.011871404 -0.114434645 0.14897078 0.13402979 -0.15122359
0.063768454 -0.038102902 0.00015532013 -0.16794834 0.10973891 0.08355368 0.026403923 0.058699396
-0.056014813 0.09235863 0.010965928 -0.009503862 -0.08345539 -0.018482776 0.05726128 0.13082993
0.13405417 -0.026575018 0.069398046 -0.066325806 0.08183282 -0.07965784 -0.0007402155 -0.06245574
0.03367663 -0.1361261 0.05011115 -0.09808545 0.06517544 -0.002346239 0.037865452 0.122693025
0.056958124 0.0013080647 0.054701764 -0.113132015 -0.05389367 0.025244934 -0.04042342 -0.028722864
-0.09983377 -0.02625753 -0.04356986 -0.04845892 0.01144666 0.059438795 -0.038122885 0.13532633
-0.10968919 -0.104809724 0.04611676 0.063162394 0.04024464 0.011097924 0.098134995 0.030887106

net.8.weight f4 [128, 128, 3]
00000000: 97ab 13bd 9446 abbc d659 45bd 0346 693d
00000010: 0eed cabc aaca fd3c 2783 0cbc 8e69 cabc
00000020: baae b63a a0c1 18bd a358 bb3c 7a72 dfbb
00000030: 44fd f33c b99d 0e3d 1e36 0d3d e95f 293d
00000040: 76ab bebc 15d1 c73c b83f b0bc 11d2 16bd
00000050: 094b 95bc e0a7 66bc e28e 1b3d b3b8 e23c
00000060: 3788 123d ffcb 103d b134 e4bc bd15 cc3c
00000070: 802a 6ebc c6aa 703c 5270 0c3d eea4 8bbc
00000080: 3c68 323c 2403 d1bc 538d 10bd 0ccf 79bd
00000090: 9299 81bb 917f e2bc 7991 45ba 025c 143c
000000a0: 0cd1 f73c 29fa 7bbc 1b0d 4cbd 9ef4 5cbd
000000b0: 1382 b3ba 21ab 313d e0c1 81bc cd72 1c3b
000000c0: 251b b1ba 3dbb ccbb 584c 4b3b 43ff 813a
000000d0: f1e5 6bbd 2261 dfbc 9d2d 7c3b a427 3cbd
000000e0: 1093 77bd 0d2f 77bc 0b6e 4bbc 5ecf aabc
000000f0: a061 6abd 98a8 463c 1c86 8f3c 18e3 133d
00000100: d065 ae3c 354f bebc 2755 bb3c c94f 5dbd
00000110: feb1 abbb 30c7 0cbd 79c1 2bbc 4c64 7a3b
00000120: 2f39 48bd 973f 863b f462 49bd 9b8e 3fbd
00000130: a5e6 2bbd 5c2f 0ebd 15a1 37bd e268 9b3c
00000140: 5269 233d 69a2 ec3c 53a8 ffbc 5096 8abc
00000150: 3f59 df3c 63d5 48bd 3f17 433c 0109 61bd
00000160: 828b b3bb 0ce1 1b3d 716c 6bbd e80a ec3c
00000170: 70cb 3a3c b27f ea3c 03bf 293d 9443 9dbb
00000180: cce4 06bd 29c7 45bc a2bb ddbb b55d 2dbd
00000190: 8b64 efbc 18d4 213d 7119 e03c 7c30 863b
000001a0: fa04 48bd 8c48 62bd ac62 53bd 985e ddba
000001b0: 2d83 59bd 5ae0 e23b 5542 9dbd 5084 c03c
000001c0: a992 1dbd fbf7 50bd f748 acbb 324f 21bd
000001d0: b104 8ebd 9dd5 3abc 0d60 78bc 5fba cebb
000001e0: 71c4 2dbd f080 01bc 9e8e b13c 6879 45bd
000001f0: 15c2 08bb 71f8 2b3c 0781 e1bc 549c 26bc
00000200: eb9d 2abd 0d9a e639 8cb1 2cbd fe3a 47bc
00000210: f037 b73c 4a56 a5bb 83fe 60bb 7eb7 06bd
00000220: 9c3c c3bb a51e 793c df50 8dbc 5eda f3bb
00000230: ab96 f8bc 85f3 263d d235 d13c 25c4 0f3d
00000240: 2e30 3fbd 8a7b e3bb f650 213d 592f 2cbb
00000250: 16ad 993c e934 8f3c d1f1 9ebc c485 3abc
00000260: 0910 4abd 998b 89bb bce1 babc 3154 0439
00000270: 7250 99bc dcb3 40bd fa49 e73c 3df6 51bd
00000280: 7dc2 acbc 6b7b c93c 87f5 753c b273 50bd
00000290: 4eab 05bd 6181 5a3c a8bc 06bc 366c 74bd
000002a0: 3ea3 09bd cf49 523d c5df df3c 2351 82bb
000002b0: c053 fdbc 084b 7a3c 902d 6dbb e791 1cbd
000002c0: d73e 20bb 00b5 bbbc acbb 18ba b0a3 06bc
000002d0: d156 e1bc 0414 febc bf63 e83c 87fa adbc
000002e0: 79ab 33bd 696f f6bc 7bc2 29bd 0e90 1cbd
000002f0: 91ed 30bc 2237 28bc 6f3c 8bbc 6640 4bbd
00000300: bf99 5abb 27fc ea3c dfcd 1abd d5ba 60bd
00000310: defc 05bd 4634 59bd a4b0 2a3d b015 82bc
00000320: b648 3fbd 2806 52bd eb8a bcbc 7cc1 b9bc
00000330: 2461 253c f0fd 2f3d 491e 1c3d 44d5 60bc
00000340: 80be 48bd 5d0a 19bc 4ad9 40bd f222 9abc
00000350: dbbd c13c bdaa 6f3c 1267 1d3d db70 023c
00000360: ab67 993c 9bef e73c b9c3 0a3d 7de8 433c
00000370: 35fa 0fbb de2d 5fbc aff9 af3c eddb 1a3c
00000380: e4fd 9a3b ce1b aa3c 6789 60bd 12d4 6abd
00000390: 6bad 8b3c 2b91 90bc afa4 873c 2bda 33bc
000003a0: b7cd 28bd 0f76 5dbc 272f 47bd ee93 f2bc
000003b0: 6326 36bd 0d64 e03c c0cd a93b 059c 56bd
000003c0: 4ade ae3c b997 d7bb baab 1c3d 6e33 b0bb
000003d0: 130e 4cbd 2094 8e3a 9ac7 3b3d 2cfd fc3c
000003e0: 47aa 8abc bd87 8cbc a059 6cbc 1246 47bd
000003f0: 0a4c 853c d988 33bd c585 433c 3eed bcbc
-0.036052313 -0.020907678 -0.048181377 0.056951534 -0.02477124 0.030980427 -0.008576191 -0.024708536
0.0013937571 -0.03729403 0.022869414 -0.0068190666 0.029783852 0.034818385 0.03447544 0.041351233
-0.023275118 0.02439169 -0.021514758 -0.03682143 -0.018224256 -0.01407811 0.03797806 0.027675962
0.035774436 0.035350796 -0.027857156 0.02491271 -0.0145365 0.014689153 0.034286804 -0.017046418
0.010889109 -0.025514193 -0.035291027 -0.06098847 -0.0039550746 -0.027648719 -0.0007536631 0.0090551395
0.030251049 -0.015379467 -0.049817186 -0.053944223 -0.0013695381 0.043376092 -0.015839517 0.0023872138
-0.0013512118 -0.0062479065 0.0031020846 0.0009917993 -0.057592336 -0.027267996 0.0038479336 -0.04593624
-0.060442984 -0.015086901 -0.012416373 -0.020850834 -0.05722201 0.012125157 0.017520003 0.036105245
0.021288782 -0.023231128 0.022867752 -0.054031167 -0.005239724 -0.034369648 -0.010483139 0.0038206754
-0.04888266 0.004096936 -0.049166635 -0.04676686 -0.041968007 -0.034713134 -0.044831354 0.01897091
0.039895363 0.028886037 -0.031208193 -0.016917378 0.027264236 -0.049031626 0.011907398 -0.054940227
-0.005479277 0.03805642 -0.057476465 0.028813794 0.011401042 0.028625343 0.04144193 -0.0047993157
-0.03293304 -0.012071409 -0.0067667523 -0.042325694 -0.029222747 0.03950891 0.027355881 0.0040951353
-0.04883287 -0.055244967 -0.051607773 -0.0016889153 -0.053103615 0.0069237174 -0.076786675 0.023500592
-0.038469944 -0.051017743 -0.0052577215 -0.039382167 -0.069344886 -0.011403468 -0.015159619 -0.0063088383
-0.04242367 -0.007904276 0.02167445 -0.048211485 -0.0020867635 0.010496245 -0.027527345 -0.0101691075
-0.04165451 0.00043983795 -0.04216151 -0.012160061 0.02236554 -0.005045687 -0.0034331388 -0.032889836
-0.005958153 0.01520506 -0.017250476 -0.007441803 -0.030345282 0.040759582 0.025538359 0.035099167
-0.046676807 -0.0069422172 0.03938385 -0.0026273339 0.018759292 0.017481284 -0.019402416 -0.011384431
-0.0493317 -0.0041975495 -0.022812717 0.00012619865 -0.018715117 -0.047046527 0.028233517 -0.05126022
-0.021088833 0.024594983 0.015012152 -0.050891586 -0.032634072 0.01333651 -0.00822369 -0.05967351
-0.033602946 0.05133992 0.027328381 -0.0039769574 -0.030923724 0.015276678 -0.0036190487 -0.03822508
-0.0024451518 -0.022913456 -0.0005826305 -0.008217737 -0.027507218 -0.031015404 0.028367875 -0.021237625
-0.0438647 -0.030082421 -0.041445237 -0.03822332 -0.010798828 -0.010267051 -0.01699659 -0.049621962
-0.00333558 0.028684689 -0.03779399 -0.054865677 -0.032711856 -0.053028367 0.041672364 -0.015879482
-0.046700202 -0.051275402 -0.02301546 -0.022675268 0.010093961 0.042966783 0.03811482 -0.0137227215
-0.0490098 -0.00934085 -0.047082223 -0.018815491 0.0236501 0.0146281095 0.038428374 0.007961477
0.01872619 0.028312495 0.033878062 0.011957285 -0.0021969203 -0.013621775 0.021481363 0.009451848
0.004729973 0.020765211 -0.054818537 -0.057331152 0.017050466 -0.017647346 0.01655802 -0.010977308
-0.04121181 -0.013516917 -0.048628952 -0.029611554 -0.044470202 0.027391458 0.005181998 -0.052394886
0.02134623 -0.006579366 0.03824971 -0.0053772246 -0.04981811 0.0010877885 0.04584465 0.03088244
-0.016926898 -0.017154569 -0.014425665 -0.04865081 0.01627161 -0.04383168 0.011933749 -0.023062345

net.8.bias f4 [128]
00000000: 8cab 35bc 319e 17bc 3abd 53bd 7f1b 843d
00000010: ea96 a0bc df9d 503d f4ae febd 1c27 38bd
00000020: c98b 593d 0c47 b1bc edfe 16bd 6d86 45be
00000030: cd25 3f3d 7dc0 2ebd dc11 a3bd afd7 71bd
00000040: c767 e63c 3890 813d 4f0b fb3c 3763 c5bd
00000050: 01be 9abc e28a e43d ee14 043a e874 b7bc
00000060: c425 893c 00b1 8ebc 9e42 133e a05e fdbc
00000070: 40dd 3b3d dae7 2c3e 3ab0 a3bc 007e a1bd
00000080: 0a1c 853d c77a c5bc f09b f7bc 94f0 3e3d
00000090: 2e84 68bc ee75 d3bc 79df a7bc 1ec9 4a3e
000000a0: e164 903d 0317 64ba 6cdb 623d e0c0 323d
000000b0: f747 b4bc e36c 223e e727 21bc 9ace bbbd
000000c0: f3d5 6bbd 8471 0dbd ab37 a8ba 92c7 80bc
000000d0: 86d0 cf3b 4db9 95bd e7c3 1e3e a35e 1f3d
000000e0: e534 adbd 3d76 803d 3cad 61bc f2dc 33bc
000000f0: cd94 30bd caca 3dbd a754 e23d 2938 b33d
00000100: 1301 9a3b ffb8 0f3d 7c86 753d fb95 e23c
00000110: eaad a8bc 8f69 b33d 6185 ebbb ec81 39bd
00000120: 82ca 3ebe cc55 48bd e1bd 87bd 3280 d0bc
00000130: a6ae 38bd aea0 2e3e 1ef3 8f3b 55d5 ce3d
00000140: ed43 313d a9ff 3a3b 125d 343a 1fb3 00bd
00000150: 19d8 c2bc e0d5 1f3e ac9d 0b3c d47a e33b
00000160: 49c6 843d c4b7 07bd c4d3 c83b 9c93 1ebd
00000170: 241b 57bd 64ea c03d 1c03 e3bc 8a45 39bd
00000180: 683e c33c e1bf ef3d 7c9d 143e 94af f83c
00000190: ce74 323e cc84 833c c54d 083e ccdb 53bd
000001a0: 5d69 22bd 0215 eabb 0765 a3bd d77a 4c3d
000001b0: 6f39 35bd d26f 413d 2ebe d6bc 6c8d ad3d
000001c0: 59c7 563e c766 11bb 1f69 163d ad6b 793d
000001d0: d7f2 613c 7738 47bd caf8 b0bd 2dd5 1a3e
000001e0: 5908 d43a b9c4 3fbd 852a 74bd 4f8d 9abd
000001f0: 59c1 e63b cfb1 2fbd 265f d33c 0998 8fbd
-0.011088263 -0.009254024 -0.051694132 0.06450557 -0.019603211 0.050931808 -0.124357134 -0.044959173
0.053111825 -0.021640323 -0.03686421 -0.1928956 0.04666691 -0.04266404 -0.07962391 -0.059043583
0.028125657 0.06326336 0.03064504 -0.09638064 -0.018889429 0.11159302 0.0005038519 -0.022394612
0.01674164 -0.017418385 0.14380881 -0.03092891 0.045865297 0.1688532 -0.019981492 -0.07885361
0.06499489 -0.024106396 -0.030225724 0.046616152 -0.01419167 -0.02581307 -0.020492302 0.19803283
0.07050491 -0.0008700939 0.05538504 0.04364097 -0.022006972 0.1586185 -0.009836174 -0.091702655
-0.057577085 -0.034532085 -0.0012833973 -0.015720163 0.0063419966 -0.07310734 0.15504418 0.038908612
-0.084573545 0.06272552 -0.013774212 -0.01097797 -0.043110657 -0.046335973 0.110513024 0.08750946
0.004699835 0.035088535 0.059942707 0.027659407 -0.020590741 0.08760368 -0.007187531 -0.04528992
-0.18631938 -0.048909947 -0.066280134 -0.025451753 -0.045088433 0.17053482 0.0043929955 0.100992836
0.04327767 0.0028533733 0.00068803236 -0.031420823 -0.023784684 0.1560893 0.008521479 0.0069421325
0.064831324 -0.033134237 0.00612876 -0.03871499 -0.052516118 0.094197065 -0.027711444 -0.045232333
0.023833469 0.1170652 0.145132 0.03035716 0.1742737 0.016054533 0.13310917 -0.051723287
-0.039651264 -0.0071436176 -0.07978254 0.049921837 -0.044244226 0.04722578 -0.026213732 0.0847424
0.20974483 -0.0022186504 0.036721345 0.060893703 0.013790808 -0.048637833 -0.08641203 0.15120383
0.0016176804 -0.04681847 -0.059610862 -0.07546484 0.007042092 -0.04289418 0.025802206 -0.0701142

head.weight f4 [4, 128]
00000000: d110 883d ca53 a43c 093d a7bc 6967 993d
00000010: 138a 843c e5b2 85bd bddf f0be cc03 83bd
00000020: ae2e 37bd 405d 2fbd 18d2 efbc 4c12 cbbe
00000030: 351e dc3d 39dc 42bd a79e d1be 4b09 17be
00000040: e6c3 303e 3fec 9c3d 5ea1 17bc bec6 f1be
00000050: 603d c5bc 631d 603d b74d ac3d 9a51 6e3d
00000060: f8c5 4fbd 5351 84be 9a1b fd3d 24a5 59be
00000070: c234 85bb a019 0e3e 5b5d efba 2a6b 2dbe
00000080: 4bbf 8e3d cd3e f1bd fc32 563a 0602 c7bd
00000090: 04c6 a23d 2229 cc3c 9942 bc3c 3656 033e
000000a0: 333e 9c3c b0d7 473b 1a78 5f3d 4583 5cbd
000000b0: 4892 9abe b5e4 c33d adbd f7bd 9f2a a6be
000000c0: b583 343c df5c 0bbe 480d 4c3d 5588 12bd
000000d0: c53f 21be cd3e bcbe 9bd9 1d3e 6fd1 ae3d
000000e0: 5c5c 01be 7bec 0e3e 63fd 81bd c573 c2bd
000000f0: 3355 d3bd 3f79 a5bc f279 0a3e ac44 063e
00000100: 426a 413d 6ff9 a4bd 74d4 3c3d 04cf b6bc
00000110: fe82 d93c 257f ed3d a6de 2abd 1aeb 59bd
00000120: 32c5 fcbe 3287 89bd 94ca 48bc 289e 9cbd
00000130: be0f 27bc 1700 cd3d 96a5 30bc 9b26 873c
00000140: 684e 333d eb9f 01bd debe 68bd e07c 99be
00000150: 9a3a 253c e25b 083e 316e 30be 35d1 72be
00000160: 1d73 4a3d 5b04 533d 9859 5dbd 695f f7bd
00000170: cb97 5f3d bcd7 8f3d 3238 1f3d 40a3 383d
00000180: 5600 9fbd 0f0a 6b3d ccbb c63d 15a4 0bbd
00000190: b113 093e ecba a73d a100 cc3d 3bec 7e3b
000001a0: 4fc4 e5be ab97 a7bc 6873 56be 663c c63d
000001b0: c44e 76be 6d44 d8bc 174d 1abe 113c e23d
000001c0: 3c48 e73d fc8c 57bd f74a 12bb 2d01 b83c
000001d0: 6c08 883d 47e5 b43c 7065 62bd daa6 b63d
000001e0: 4add d8bd a3e4 4e3d f4e5 2cbd ebe2 47bd
000001f0: cad1 69be dc6d 20be 79a9 59bd 784f 403d
00000200: b509 dcbb 8dbc 3e3c 4478 ef3b ea57 cf3c
00000210: b20a 7c3d 4561 d03d 7dc4 b83e d3c4 55bd
00000220: 14f3 77be b171 523e 649e aa3c 4009 9b3e
00000230: 46ee 883c 1441 be3d 522f 993e bb1a d8be
00000240: 6ffd 20bf 1090 86bc 8439 72be 8229 773e
00000250: c3e5 813b 113a c33b 672e aebe 2379 0d3c
00000260: 2226 763d 6b92 8d3e c6cf fe3d 7344 94be
00000270: 3360 86be 3679 a2bd 6798 a43d 8b1b c3be
00000280: e9ef 103c 6a0c 96be 1229 8bbe ccd0 fcbd
00000290: 0429 40be e1ac de3c 2496 c7bc 91c9 8bbd
000002a0: 1181 a43d 49fc d8be f78f eebc 81f1 463d
000002b0: 0ece 9d3e 362e 2d3d a016 96be 2b33 8e3e
000002c0: 2bcc 8fbb d261 0d3e a835 323d c6a1 9bbe
000002d0: 4a7c b6be d88b 8b3e 2623 25be 9f6a 31be
000002e0: 6a7e 2d3e f358 86bd 62ef 9fbe 8af2 9abe
000002f0: 102f 8dbe 30be 05bd 6f4f 3cbd 1a0e 33be
00000300: 61c4 38bd 1962 293e 8da9 013d e791 a5be
00000310: af83 cdbe f108 0a3d 5083 eebc 446e 153d
00000320: 8b2a a53e a56e bdbe 2d04 3fbd 1f47 e03b
00000330: c1b8 82bd e3bc 17bc e10e 3c3d 191d 413d
00000340: 214f 513d 8930 8abe 8465 a8bd 27ac 903e
00000350: 2c40 403b 2e3c 3a3b c62f 30be 17ff f7be
00000360: f6e9 ac3d bcb1 bd3b c1c9 0abe 01f4 4e3e
00000370: da8e 40bd 3196 d23d e456 4c3c 9024 b73d
00000380: 7d2b a9be fe31 533d 3e0f a7bd 38fb 8abe
00000390: 41dc 153e ed66 07bf 29fc d33d 7487 5e3c
000003a0: a70f a23e 1caa 573d 4db4 9bbe 0083 40be
000003b0: 0887 d9be 3c27 83be b0b6 8f3e 920a bcbd
000003c0: 4555 3f3d 5441 afbe 9697 b4be b6c2 123d
000003d0: 91f7 6ebe a227 f7bb 9c84 e6bd 69ca f73c
000003e0: 8695 fb3d 8187 313c efe2 08bc 2f4f 543c
000003f0: 1081 163e 2b4c aebe 14cb 073d 15bd 013d
0.066438325 0.020059485 -0.020414846 0.07490427 0.01617912 -0.06528262 -0.470457 -0.063972086
-0.04472225 -0.04281354 -0.029274985 -0.39662397 0.10747949 -0.047573302 -0.40941355 -0.14749639
0.1726223 0.07662248 -0.0092547815 -0.4722194 -0.024077117 0.054715525 0.084132604 0.05818329
-0.050725907 -0.25843295 0.1235878 -0.21254402 -0.004065127 0.13876963 -0.0018262075 -0.16935411
0.0697008 -0.117795564 0.00081710494 -0.09717183 0.07947925 0.024921957 0.022980975 0.12825856
0.019072628 0.003049355 0.054557897 -0.053836126 -0.3018973 0.09565107 -0.12096725 -0.32454392
0.0110177295 -0.13609646 0.049817353 -0.035774548 -0.15746982 -0.36766663 0.15415041 0.0853604
-0.12632889 0.13957398 -0.06347158 -0.094947375 -0.10318985 -0.020199416 0.13523081 0.13112134
0.047220476 -0.08055388 0.04610105 -0.02231551 0.02655172 0.115965165 -0.04171624 -0.053202726
-0.49369198 -0.067152396 -0.01225533 -0.076473534 -0.010196624 0.10009783 -0.010781666 0.0164979
0.043775946 -0.03164665 -0.05682265 -0.29978085 0.0100847725 0.133163 -0.17229535 -0.23712619
0.049426187 0.051517826 -0.05404052 -0.12078745 0.05458812 0.0702357 0.03887195 0.045077562
-0.07763736 0.05738264 0.09703788 -0.034092028 0.13386418 0.081899494 0.099610575 0.0038898129
-0.44876334 -0.020458063 -0.20942461 0.09679489 -0.24053484 -0.026399815 -0.1506847 0.11046613
0.112930745 -0.052624688 -0.0022322515 0.022461498 0.06642231 0.022081984 -0.05527252 0.08918543
-0.105890825 0.050511014 -0.042211488 -0.04880039 -0.22833934 -0.15666908 -0.053140137 0.046950787
-0.0067150244 0.011641634 0.007308038 0.025310475 0.061533637 0.10174803 0.3608741 -0.05218966
-0.2421382 0.20551182 0.02082748 0.30280495 0.01671518 0.092897564 0.29918915 -0.42207894
-0.6288671 -0.016426116 -0.23654753 0.24136928 0.0039641573 0.00595785 -0.34019777 0.008634838
0.06009496 0.2765077 0.124419734 -0.28958473 -0.2624527 -0.079332754 0.08036881 -0.3810695
0.008846262 -0.29306346 -0.27179772 -0.12344512 -0.18765646 0.027182044 -0.024363585 -0.06825555
0.0803243 -0.42379978 -0.029121382 0.04857016 0.3082127 0.0422804 -0.29314137 0.27773413
-0.0043883524 0.13806847 0.0435082 -0.3039686 -0.356417 0.2725513 -0.1612669 -0.17325829
0.16942754 -0.065599345 -0.31237322 -0.30263168 -0.27574968 -0.03265208 -0.04597419 -0.17485848
-0.045109157 0.16541328 0.031655837 -0.32337877 -0.4013953 0.033699933 -0.029115349 0.03648211
0.3225902 -0.36998478 -0.04663484 0.006844416 -0.06382895 -0.009261343 0.045912627 0.04714689
0.051100854 -0.26990154 -0.082224876 0.28256342 0.0029335124 0.0028417218 -0.17205724 -0.48436806
0.08443062 0.00578901 -0.13553526 0.20210268 -0.047011234 0.10282553 0.012471888 0.089425206
-0.3304099 0.05156135 -0.08157204 -0.2714479 0.14634801 -0.5289143 0.1035083 0.013582099
0.31652567 0.052652463 -0.30410996 -0.18799973 -0.42485833 -0.2561587 0.28069067 -0.091817036
0.04671218 -0.3422953 -0.352719 0.035830222 -0.23336627 -0.0075425664 -0.11255762 0.030247884
0.12284379 0.010835529 -0.008354886 0.012958332 0.14697671 -0.34042487 0.033152655 0.031674463

head.bias f4 [4]
00000000: ab99 1a3e 4add 073d 84ba 47bd 88d5 143c
0.15097682 0.033170022 -0.04876186 0.009084113
